…
n        x = self.features(x)\n        x = x.view(x.size(0), -1)  # \u5c55\u5e73\u7279\u5f81\u56fe\n        x = self.classifier(x)\n        return x\n\ndef get_model_on_device():\n    return CNN().to(device)\n</code></pre>  CNN \u7684\u8bad\u7ec3\u7ed3\u679c  <pre><code>==================================================\n               Results\n==================================================\n\n[Hyper parameters]\n  - Best LR: 0.000199\n  - Best epochs: 16 epochs\n  - Batch size: 128\n\n[Model structure]\n  - Model type: CNN\n  - Model structure:\nCNN(\n  (features): Sequential(\n    (conv1): Conv2d(3, 32, kernel_size=(3, 3), stride=(1, 1), padding=(1, 1))\n    (bn1): BatchNorm2d(32, eps=1e-05, momentum=0.1, affine=True, track_running_stats=True)\n    (relu1): ReLU(inplace=True)\n    (pool1): MaxPool2d(kernel_size=2, stride=2, padding=0, dilation=1, ceil_mode=False)\n    (conv2): Conv2d(32, 64, kernel_size=(3, 3), stride=(1, 1), padding=(1, 1))\n    (bn2): BatchNorm2d(64, eps=1e-05, momentum=0.1, affine=True, track_running_stats=True)\n    (relu2): ReLU(inplace=True)\n    (pool2): MaxPool2d(kernel_size=2, stride=2, padding=0, dilation=1, ceil_mode=False)\n    (conv3): Conv2d(64, 128, kernel_size=(3, 3), stride=(1, 1), padding=(1, 1))\n    (bn3): BatchNorm2d(128, eps=1e-05, momentum=0.1, affine=True, track_running_stats=True)\n    (relu3): ReLU(inplace=True)\n    (pool3): MaxPool2d(kernel_size=2, stride=2, padding=0, dilation=1, ceil_mode=False)\n  )\n  (classifier): Sequential(\n    (0): Linear(in_features=2048, out_features=512, bias=True)\n    (1): ReLU(inplace=True)\n    (2): Dropout(p=0.5, inplace=False)\n    (3): Linear(in_features=512, out_features=10, bias=True)\n  )\n)\n  - Total params: 1,147,914\n\n[Training infomation]\n  - Training duration on full training set: 4m 7s\n  - Training device: cuda on Kaggle's free P100, Thank you Google!\n\n[Benchmarks on test set]\n  - Test loss: 0.7026\n  - Test accuracy: 77.33%\n\n==================================================\n</code></pre>"}, {"location": "DNN/model-
…
et(x)\n\ndef get_model_on_device():\n    model = ResNet18()# pretrained=True \u4f7f\u7528\u9884\u8bad\u7ec3\u6743\u91cd\uff0c\u53cd\u4e4b\u4e0d\u4f7f\u7528\u3002\n    return model.to(device)\n</code></pre>  \u4ece\u96f6\u8bad\u7ec3\u7ed3\u679c  <pre><code>==================================================\n               Results\n==================================================\n\n[Hyper parameters]\n  - Best LR: 0.002787\n  - Best epochs: 8 epochs\n  - Batch size: 128\n\n[Model structure]\n  - Model type: ResNet18 from scrach\n  - Model structure:\nResNet18(\n  (resnet): ResNet(\n    (conv1): Conv2d(3, 64, kernel_size=(3, 3), stride=(1, 1), padding=(1, 1), bias=False)\n    (bn1): BatchNorm2d(64, eps=1e-05, momentum=0.1, affine=True, track_running_stats=True)\n    (relu): ReLU(inplace=True)\n    (maxpool): Identity()\n    (layer1): Sequential(\n      (0): BasicBlock(\n        (conv1): Conv2d(64, 64, kernel_size=(3, 3), stride=(1, 1), padding=(1, 1), bias=False)\n        (bn1): BatchNorm2d(64, eps=1e-05, momentum=0.1, affine=True, track_running_stats=True)\n        (relu): ReLU(inplace=True)\n        (conv2): Conv2d(64, 64, kernel_size=(3, 3), stride=(1, 1), padding=(1, 1), bias=False)\n        (bn2): BatchNorm2d(64, eps=1e-05, momentum=0.1, affine=True, track_running_stats=True)\n      )\n      (1): BasicBlock(\n        (conv1): Conv2d(64, 64, kernel_size=(3, 3), stride=(1, 1), padding=(1, 1), bias=False)\n        (bn1): BatchNorm2d(64, eps=1e-05, momentum=0.1, affine=True, track_running_stats=True)\n        (relu): ReLU(inplace=True)\n        (conv2): Conv2d(64, 64, kernel_size=(3, 3), stride=(1, 1), padding=(1, 1), bias=False)\n        (bn2): BatchNorm2d(64, eps=1e-05, momentum=0.1, affine=True, track_running_stats=True)\n      )\n    )\n    (layer2): Sequential(\n      (0): BasicBlock(\n        (conv1): Conv2d(64, 128, kernel_size=(3, 3), stride=(2, 2), padding=(1, 1), bias=False)\n        (bn1): BatchNorm2d(128, eps=1e-05, momentum=0.1, affine=True, track_running_stats=True)\n        (relu): ReLU(inplace=True)\n        (conv2): Conv2d(128, 128, kernel_size=(3, 3), stride=(1, 1), padding=(1, 1), bias=False)\n        (bn2): BatchNorm2d(128, eps=1e-05, momentum=0.1, affine=True, track_running_stats=True)\n        (downsample): Sequential(\n          (0): Conv2d(64, 128, kernel_size=(1, 1), stride=(2, 2), bias=False)\n          (1): BatchNorm2d(128, eps=1e-05, momentum=0.1, affine=True, track_running_stats=True)\n        )\n      )\n      (1): BasicBlock(\n        (conv1): Conv2d(128, 128, kernel_size=(3, 3), stride=(1, 1), padding=(1, 1), bias=False)\n        (bn1): BatchNorm2d(128, eps=1e-05, momentum=0.1, affine=True, track_running_stats=True)\n        (relu): ReLU(inplace=True)\n        (conv2): Conv2d(128, 128, kernel_size=(3, 3), stride=(1, 1), padding=(1, 1), bias=False)\n        (bn2): BatchNorm2d(128, eps=1e-05, momentum=0.1, affine=True, track_running_stats=True)\n      )\n    )\n    (layer3): Sequential(\n      (0): BasicBlock(\n        (conv1): Conv2d(128, 256, kernel_size=(3, 3), stride=(2, 2), padding=(1, 1), bias=False)\n        (bn1): BatchNorm2d(256, eps=1e-05, momentum=0.1, affine=True, track_running_stats=True)\n        (relu): ReLU(inplace=True)\n        (conv2): Conv2d(256, 256, kernel_size=(3, 3), stride=(1, 1), padding=(1, 1), bias=False)\n        (bn2): BatchNorm2d(256, eps=1e-05, momentum=0.1, affine=True, track_running_stats=True)\n        (downsample): Sequential(\n          (0): Conv2d(128, 256, kernel_size=(1, 1), stride=(2, 2), bias=False)\n          (1): BatchNorm2d(256, eps=1e-05, momentum=0.1, affine=True, track_running_stats=True)\n        )\n      )\n      (1): BasicBlock(\n        (conv1): Conv2d(256, 256, kernel_size=(3, 3), stride=(1, 1), padding=(1, 1), bias=False)\n        (bn1): BatchNorm2d(256, eps=1e-05, momentum=0.1, affine=True, track_running_stats=True)\n        (relu): ReLU(inplace=True)\n        (conv2): Conv2d(256, 256, kernel_size=(3, 3), stride=(1, 1), padding=(1, 1), bias=False)\n        (bn2): BatchNorm2d(256, eps=1e-05, momentum=0.1, affine=True, track_running_stats=True)\n      )\n    )\n    (layer4): Sequential(\n      (0): BasicBlock(\n        (conv1): Conv2d(256, 512, kernel_size=(3, 3), stride=(2, 2), padding=(1, 1), bias=False)\n        (bn1): BatchNorm2d(512, eps=1e-05, momentum=0.1, affine=True, track_running_stats=True)\n        (relu): ReLU(inplace=True)\n        (conv2): Conv2d(512, 512, kernel_size=(3, 3), stride=(1, 1), padding=(1, 1), bias=False)\n        (bn2): BatchNorm2d(512, eps=1e-05, momentum=0.1, affine=True, track_running_stats=True)\n        (downsample): Sequential(\n          (0): Conv2d(256, 512, kernel_size=(1, 1), stride=(2, 2), bias=False)\n          (1): BatchNorm2d(512, eps=1e-05, momentum=0.1, affine=True, track_running_stats=True)\n        )\n      )\n      (1): BasicBlock(\n        (conv1): Conv2d(512, 512, kernel_size=(3, 3), stride=(1, 1), padding=(1, 1), bias=False)\n        (bn1): BatchNorm2d(512, eps=1e-05, momentum=0.1, affine=True, track_running_stats=True)\n        (relu): ReLU(inplace=True)\n        (conv2): Conv2d(512, 512, kernel_size=(3, 3), stride=(1, 1), padding=(1, 1), bias=False)\n        (bn2): BatchNorm2d(512, eps=1e-05, momentum=0.1, affine=True, track_running_stats=True)\n      )\n    )\n    (avgpool): AdaptiveAvgPool2d(output_size=(1, 1))\n    (fc): Linear(in_features=512, out_features=10, bias=True)\n  )\n)\n  - Total params: 11,173,962\n\n[Training infomation]\n  - Training duration on full training set: 5m 8s\n  - Training device: cuda on Kaggle's free P100, Thank you Google!\n\n[Benchmarks on test set]\n  - Test loss: 0.5767\n  - Test accuracy: 83.46%\n\n==================================================\n</code></pre>  \u5fae\u8c03\u7ed3\u679c  <pre><code>==================================================\n               Results\n==================================================\n\n[Hyper parameters]\n  - Best LR: 0.000330\n  - Best epochs: 3 epochs\n  - Batch size: 128\n\n[Model structure]\n  - Model type: Pretrained ResNet18\n  - Model structure:\nResNet18(\n  (resnet): ResNet(\n    (conv1): Conv2d(3, 64, kernel_size=(3, 3), stride=(1, 1), padding=(1, 1), bias=False)\n    (bn1): BatchNorm2d(64, eps=1e-05, momentum=0.1, affine=True, track_running_stats=True)\n    (relu): ReLU(inplace=True)\n    (maxpool): Identity()\n    (layer1): Sequential(\n      (0): BasicBlock(\n        (conv1): Conv2d(64, 64, kernel_size=(3, 3), stride=(1, 1), padding=(1, 1), bias=False)\n        (bn1): BatchNorm2d(64, eps=1e-05, momentum=0.1, affine=True, track_running_stats=True)\n        (relu): ReLU(inplace=True)\n        (conv2): Conv2d(64, 64, kernel_size=(3, 3), stride=(1, 1), padding=(1, 1), bias=False)\n        (bn2): BatchNorm2d(64, eps=1e-05, momentum=0.1, affine=True, track_running_stats=True)\n      )\n      (1): BasicBlock(\n        (conv1): Conv2d(64, 64, kernel_size=(3, 3), stride=(1, 1), padding=(1, 1), bias=False)\n        (bn1): BatchNorm2d(64, eps=1e-05, momentum=0.1, affine=True, track_running_stats=True)\n        (relu): ReLU(inplace=True)\n        (conv2): Conv2d(64, 64, kernel_size=(3, 3), stride=(1, 1), padding=(1, 1), bias=False)\n        (bn2): BatchNorm2d(64, eps=1e-05, momentum=0.1, affine=True, track_running_stats=True)\n      )\n    )\n    (layer2): Sequential(\n      (0): BasicBlock(\n        (conv1): Conv2d(64, 128, kernel_size=(3, 3), stride=(2, 2), padding=(1, 1), bias=False)\n        (bn1): BatchNorm2d(128, eps=1e-05, momentum=0.1, affine=True, track_running_stats=True)\n        (relu): ReLU(inplace=True)\n        (conv2): Conv2d(128, 128, kernel_size=(3, 3), stride=(1, 1), padding=(1, 1), bias=False)\n        (bn2): BatchNorm2d(128, eps=1e-05, momentum=0.1, affine=True, track_running_stats=True)\n        (downsample): Sequential(\n          (0): Conv2d(64, 128, kernel_size=(1, 1), stride=(2, 2), bias=False)\n          (1): BatchNorm2d(128, eps=1e-05, momentum=0.1, affine=True, track_running_stats=True)\n        )\n      )\n      (1): BasicBlock(\n        (conv1): Conv2d(128, 128, kernel_size=(3, 3), stride=(1, 1), padding=(1, 1), bias=False)\n        (bn1): BatchNorm2d(128, eps=1e-05, momentum=0.1, affine=True, track_running_stats=True)\n        (relu): ReLU(inplace=True)\n        (conv2): Conv2d(128, 128, kernel_size=(3, 3), stride=(1, 1), padding=(1, 1), bias=False)\n        (bn2): BatchNorm2d(128, eps=1e-05, momentum=0.1, affine=True, track_running_stats=True)\n      )\n    )\n    (layer3): Sequential(\n      (0): BasicBlock(\n        (conv1): Conv2d(128, 256, kernel_size=(3, 3), stride=(2, 2), padding=(1, 1), bias=False)\n        (bn1): BatchNorm2d(256, eps=1e-05, momentum=0.1, affine=True, track_running_stats=True)\n        (relu): ReLU(inplace=True)\n        (conv2): Conv2d(256, 256, kernel_size=(3, 3), stride=(1, 1), padding=(1, 1), bias=False)\n        (bn2): BatchNorm2d(256, eps=1e-05, momentum=0.1, affine=True, track_running_stats=True)\n        (downsample): Sequential(\n          (0): Conv2d(128, 256, kernel_size=(1, 1), stride=(2, 2), bias=False)\n          (1): BatchNorm2d(256, eps=1e-05, momentum=0.1, affine=True, track_running_stats=True)\n        )\n      )\n      (1): BasicBlock(\n        (conv1): Conv2d(256, 256, kernel_size=(3, 3), stride=(1, 1), padding=(1, 1), bias=False)\n        (bn1): BatchNorm2d(256, eps=1e-05, momentum=0.1, affine=True, track_running_stats=True)\n        (relu): ReLU(inplace=True)\n        (conv2): Conv2d(256, 256, kernel_size=(3, 3), stride=(1, 1), padding=(1, 1), bias=False)\n        (bn2): BatchNorm2d(256, eps=1e-05, momentum=0.1, affine=True, track_running_stats=True)\n      )\n    )\n    (layer4): Sequential(\n      (0): BasicBlock(\n        (conv1): Conv2d(256, 512, kernel_size=(3, 3), stride=(2, 2), padding=(1, 1), bias=False)\n        (bn1): BatchNorm2d(512, eps=1e-05, momentum=0.1, affine=True, track_running_stats=True)\n        (relu): ReLU(inplace=True)\n        (conv2): Conv2d(512, 512, kernel_size=(3, 3), stride=(1, 1), padding=(1, 1), bias=False)\n        (bn2): BatchNorm2d(512, eps=1e-05, momentum=0.1, affine=True, track_running_stats=True)\n        (downsample): Sequential(\n          (0): Conv2d(256, 512, kernel_size=(1, 1), stride=(2, 2), bias=False)\n          (1): BatchNorm2d(512, eps=1e-05, momentum=0.1, affine=True, track_running_stats=True)\n        )\n      )\n      (1): BasicBlock(\n        (conv1): Conv2d(512, 512, kernel_size=(3, 3), stride=(1, 1), padding=(1, 1), bias=False)\n        (bn1): BatchNorm2d(512, eps=1e-05, momentum=0.1, affine=True, track_running_stats=True)\n        (relu): ReLU(inplace=True)\n        (conv2): Conv2d(512, 512, kernel_size=(3, 3), stride=(1, 1), padding=(1, 1), bias=False)\n        (bn2): BatchNorm2d(512, eps=1e-05, momentum=0.1, affine=True, track_running_stats=True)\n      )\n    )\n    (avgpool): AdaptiveAvgPool2d(output_size=(1, 1))\n    (fc): Linear(in_features=512, out_features=10, bias=True)\n  )\n)\n  - Total params: 11,173,962\n\n[Training infomation]\n  - Training duration on full training set: 1m 55s\n  - Training device: cuda on Kaggle's free P100, Thank you Google!\n\n[Benchmarks on test set]\n  - Test loss: 0.3450\n  - Test accuracy: 89.06%\n\n==================================================\n</code></pre>"}, {"location": "DNN/mode
…
: \u914d\u7f6e\u597d\u5e76\u79fb\u52a8\u5230\u8bbe\u5907\u4e0a\u7684\u6a21\u578b\u5b9e\u4f8b\u3002\n    \"\"\"\n    model = ViT_Cifar10(num_classes=10)\n    return model.to(device)\n</code></pre>  nanoViT \u7684\u8bad\u7ec3\u7ed3\u679c <pre><code>==================================================\n               Results\n==================================================\n\n[Hyper parameters]\n  - Best LR: 0.000232\n  - Best epochs: 16 epochs\n  - Batch size: 128\n\n[Model structure]\n  - Model type: ViT\n  - Model structure:\nTransformerClassifier(\n  (patch_embed): PatchEmbedding(\n    (proj): Conv2d(3, 192, kernel_size=(2, 2), stride=(2, 2))\n  )\n  (pos_drop): Dropout(p=0.1, inplace=False)\n  (transformer_encoder): TransformerEncoder(\n    (layers): ModuleList(\n      (0-3): 4 x TransformerEncoderLayer(\n        (self_attn): MultiheadAttention(\n          (out_proj): NonDynamicallyQuantizableLinear(in_features=192, out_features=192, bias=True)\n        )\n        (linear1): Linear(in_features=192, out_features=384, bias=True)\n        (dropout): Dropout(p=0.1, inplace=False)\n        (linear2): Linear(in_features=384, out_features=192, bias=True)\n        (norm1): LayerNorm((192,), eps=1e-05, elementwise_affine=True)\n        (norm2): LayerNorm((192,), eps=1e-05, elementwise_affine=True)\n        (dropout1): Dropout(p=0.1, inplace=False)\n        (dropout2): Dropout(p=0.1, inplace=False)\n      )\n    )\n  )\n  (classifier): Sequential(\n    (0): LayerNorm((192,), eps=1e-05, elementwise_affine=True)\n    (1): Linear(in_features=192, out_features=10, bias=True)\n  )\n)\n  - Total params: 1,242,442\n\n[Training infomation]\n  - Training duration on full training set: 19m 55s\n  - Training device: cuda on Kaggle's free P100, Thank you Google!\n\n[Benchmarks on test set]\n  - Test loss: 0.7802\n  - Test accuracy: 73.24%\n\n==================================================\n</code></pre>  ViT-B-16 \u7684\u5fae\u8c03\u7ed3\u679c  <pre><code>==================================================\n               Results\n==================================================\n\n[Hyper parameters]\n  - Best LR: 0.000308\n  - Best epochs: 45 epochs\n  - Batch size: 128\n\n[Model structure]\n  - Model type: ViT\n  - Model structure:\nViT_Cifar10(\n  (upsampler): Resize(size=(224, 224), interpolation=bilinear, max_size=None, antialias=True)\n  (vit): VisionTransformer(\n    (conv_proj): Conv2d(3, 768, kernel_size=(16, 16), stride=(16, 16))\n    (encoder): Encoder(\n      (dropout): Dropout(p=0.0, inplace=False)\n      (layers): Sequential(\n        (encoder_layer_0): EncoderBlock(\n          (ln_1): LayerNorm((768,), eps=1e-06, elementwise_affine=True)\n          (self_attention): MultiheadAttention(\n            (out_proj): NonDynamicallyQuantizableLinear(in_features=768, out_features=768, bias=True)\n          )\n          (dropout): Dropout(p=0.0, inplace=False)\n          (ln_2): LayerNorm((768,), eps=1e-06, elementwise_affine=True)\n          (mlp): MLPBlock(\n            (0): Linear(in_features=768, out_features=3072, bias=True)\n            (1): GELU(approximate='none')\n            (2): Dropout(p=0.0, inplace=False)\n            (3): Linear(in_features=3072, out_features=768, bias=True)\n            (4): Dropout(p=0.0, inplace=False)\n          )\n        )\n        (encoder_layer_1): EncoderBlock(\n          (ln_1): LayerNorm((768,), eps=1e-06, elementwise_affine=True)\n          (self_attention): MultiheadAttention(\n            (out_proj): NonDynamicallyQuantizableLinear(in_features=768, out_features=768, bias=True)\n          )\n          (dropout): Dropout(p=0.0, inplace=False)\n          (ln_2): LayerNorm((768,), eps=1e-06, elementwise_affine=True)\n          (mlp): MLPBlock(\n            (0): Linear(in_features=768, out_features=3072, bias=True)\n            (1): GELU(approximate='none')\n            (2): Dropout(p=0.0, inplace=False)\n            (3): Linear(in_features=3072, out_features=768, bias=True)\n            (4): Dropout(p=0.0, inplace=False)\n          )\n        )\n        (encoder_layer_2): EncoderBlock(\n          (ln_1): LayerNorm((768,), eps=1e-06, elementwise_affine=True)\n          (self_attention): MultiheadAttention(\n            (out_proj): NonDynamicallyQuantizableLinear(in_features=768, out_features=768, bias=True)\n          )\n          (dropout): Dropout(p=0.0, inplace=False)\n          (ln_2): LayerNorm((768,), eps=1e-06, elementwise_affine=True)\n          (mlp): MLPBlock(\n            (0): Linear(in_features=768, out_features=3072, bias=True)\n            (1): GELU(approximate='none')\n            (2): Dropout(p=0.0, inplace=False)\n            (3): Linear(in_features=3072, out_features=768, bias=True)\n            (4): Dropout(p=0.0, inplace=False)\n          )\n        )\n        (encoder_layer_3): EncoderBlock(\n          (ln_1): LayerNorm((768,), eps=1e-06, elementwise_affine=True)\n          (self_attention): MultiheadAttention(\n            (out_proj): NonDynamicallyQuantizableLinear(in_features=768, out_features=768, bias=True)\n          )\n          (dropout): Dropout(p=0.0, inplace=False)\n          (ln_2): LayerNorm((768,), eps=1e-06, elementwise_affine=True)\n          (mlp): MLPBlock(\n            (0): Linear(in_features=768, out_features=3072, bias=True)\n            (1): GELU(approximate='none')\n            (2): Dropout(p=0.0, inplace=False)\n            (3): Linear(in_features=3072, out_features=768, bias=True)\n            (4): Dropout(p=0.0, inplace=False)\n          )\n        )\n        (encoder_layer_4): EncoderBlock(\n          (ln_1): LayerNorm((768,), eps=1e-06, elementwise_affine=True)\n          (self_attention): MultiheadAttention(\n            (out_proj): NonDynamicallyQuantizableLinear(in_features=768, out_features=768, bias=True)\n          )\n          (dropout): Dropout(p=0.0, inplace=False)\n          (ln_2): LayerNorm((768,), eps=1e-06, elementwise_affine=True)\n          (mlp): MLPBlock(\n            (0): Linear(in_features=768, out_features=3072, bias=True)\n            (1): GELU(approximate='none')\n            (2): Dropout(p=0.0, inplace=False)\n            (3): Linear(in_features=3072, out_features=768, bias=True)\n            (4): Dropout(p=0.0, inplace=False)\n          )\n        )\n        (encoder_layer_5): EncoderBlock(\n          (ln_1): LayerNorm((768,), eps=1e-06, elementwise_affine=True)\n          (self_attention): MultiheadAttention(\n            (out_proj): NonDynamicallyQuantizableLinear(in_features=768, out_features=768, bias=True)\n          )\n          (dropout): Dropout(p=0.0, inplace=False)\n          (ln_2): LayerNorm((768,), eps=1e-06, elementwise_affine=True)\n          (mlp): MLPBlock(\n            (0): Linear(in_features=768, out_features=3072, bias=True)\n            (1): GELU(approximate='none')\n            (2): Dropout(p=0.0, inplace=False)\n            (3): Linear(in_features=3072, out_features=768, bias=True)\n            (4): Dropout(p=0.0, inplace=False)\n          )\n        )\n        (encoder_layer_6): EncoderBlock(\n          (ln_1): LayerNorm((768,), eps=1e-06, elementwise_affine=True)\n          (self_attention): MultiheadAttention(\n            (out_proj): NonDynamicallyQuantizableLinear(in_features=768, out_features=768, bias=True)\n          )\n          (dropout): Dropout(p=0.0, inplace=False)\n          (ln_2): LayerNorm((768,), eps=1e-06, elementwise_affine=True)\n          (mlp): MLPBlock(\n            (0): Linear(in_features=768, out_features=3072, bias=True)\n            (1): GELU(approximate='none')\n            (2): Dropout(p=0.0, inplace=False)\n            (3): Linear(in_features=3072, out_features=768, bias=True)\n            (4): Dropout(p=0.0, inplace=False)\n          )\n        )\n        (encoder_layer_7): EncoderBlock(\n          (ln_1): LayerNorm((768,), eps=1e-06, elementwise_affine=True)\n          (self_attention): MultiheadAttention(\n            (out_proj): NonDynamicallyQuantizableLinear(in_features=768, out_features=768, bias=True)\n          )\n          (dropout): Dropout(p=0.0, inplace=False)\n          (ln_2): LayerNorm((768,), eps=1e-06, elementwise_affine=True)\n          (mlp): MLPBlock(\n            (0): Linear(in_features=768, out_features=3072, bias=True)\n            (1): GELU(approximate='none')\n            (2): Dropout(p=0.0, inplace=False)\n            (3): Linear(in_features=3072, out_features=768, bias=True)\n            (4): Dropout(p=0.0, inplace=False)\n          )\n        )\n        (encoder_layer_8): EncoderBlock(\n          (ln_1): LayerNorm((768,), eps=1e-06, elementwise_affine=True)\n          (self_attention): MultiheadAttention(\n            (out_proj): NonDynamicallyQuantizableLinear(in_features=768, out_features=768, bias=True)\n          )\n          (dropout): Dropout(p=0.0, inplace=False)\n          (ln_2): LayerNorm((768,), eps=1e-06, elementwise_affine=True)\n          (mlp): MLPBlock(\n            (0): Linear(in_features=768, out_features=3072, bias=True)\n            (1): GELU(approximate='none')\n            (2): Dropout(p=0.0, inplace=False)\n            (3): Linear(in_features=3072, out_features=768, bias=True)\n            (4): Dropout(p=0.0, inplace=False)\n          )\n        )\n        (encoder_layer_9): EncoderBlock(\n          (ln_1): LayerNorm((768,), eps=1e-06, elementwise_affine=True)\n          (self_attention): MultiheadAttention(\n            (out_proj): NonDynamicallyQuantizableLinear(in_features=768, out_features=768, bias=True)\n          )\n          (dropout): Dropout(p=0.0, inplace=False)\n          (ln_2): LayerNorm((768,), eps=1e-06, elementwise_affine=True)\n          (mlp): MLPBlock(\n            (0): Linear(in_features=768, out_features=3072, bias=True)\n            (1): GELU(approximate='none')\n            (2): Dropout(p=0.0, inplace=False)\n            (3): Linear(in_features=3072, out_features=768, bias=True)\n            (4): Dropout(p=0.0, inplace=False)\n          )\n        )\n        (encoder_layer_10): EncoderBlock(\n          (ln_1): LayerNorm((768,), eps=1e-06, elementwise_affine=True)\n          (self_attention): MultiheadAttention(\n            (out_proj): NonDynamicallyQuantizableLinear(in_features=768, out_features=768, bias=True)\n          )\n          (dropout): Dropout(p=0.0, inplace=False)\n          (ln_2): LayerNorm((768,), eps=1e-06, elementwise_affine=True)\n          (mlp): MLPBlock(\n            (0): Linear(in_features=768, out_features=3072, bias=True)\n            (1): GELU(approximate='none')\n            (2): Dropout(p=0.0, inplace=False)\n            (3): Linear(in_features=3072, out_features=768, bias=True)\n            (4): Dropout(p=0.0, inplace=False)\n          )\n        )\n        (encoder_layer_11): EncoderBlock(\n          (ln_1): LayerNorm((768,), eps=1e-06, elementwise_affine=True)\n          (self_attention): MultiheadAttention(\n            (out_proj): NonDynamicallyQuantizableLinear(in_features=768, out_features=768, bias=True)\n          )\n          (dropout): Dropout(p=0.0, inplace=False)\n          (ln_2): LayerNorm((768,), eps=1e-06, elementwise_affine=True)\n          (mlp): MLPBlock(\n            (0): Linear(in_features=768, out_features=3072, bias=True)\n            (1): GELU(approximate='none')\n            (2): Dropout(p=0.0, inplace=False)\n            (3): Linear(in_features=3072, out_features=768, bias=True)\n            (4): Dropout(p=0.0, inplace=False)\n          )\n        )\n      )\n      (ln): LayerNorm((768,), eps=1e-06, elementwise_affine=True)\n    )\n    (heads): Sequential(\n      (head): Linear(in_features=768, out_features=10, bias=True)\n    )\n  )\n)\n  - Total params: 7,690\n\n[Training infomation]\n  - Training duration on full training set: 265m 15s\n  - Training device: cuda on Kaggle's free P100, Thank you Google!\n\n[Benchmarks on test set]\n  - Test loss: 0.1402\n  - Test accuracy: 95.42%\n\n==================================================\n</code></pre>"}, {"location": "DNN/
…
