{"format": "graph-model", "generatedBy": "2.12.0", "convertedBy": "TensorFlow.js Converter v4.11.0", "signature": {"inputs": {"input": {"name": "input:0", "dtype": "DT_FLOAT", "tensorShape": {"dim": [{"size": "-1"}, {"size": "128"}, {"size": "1"}, {"size": "1"}]}}}, "outputs": {"output": {"name": "Identity:0", "dtype": "DT_FLOAT", "tensorShape": {"dim": [{"size": "-1"}, {"size": "3"}, {"size": "64"}, {"size": "64"}]}}}}, "modelTopology": {"node": [{"name": "PartitionedCall/Slice_4/begin", "op": "Const", "attr": {"value": {"tensor": {"dtype": "DT_INT32", "tensorShape": {"dim": [{"size": "4"}]}}}, "dtype": {"type": "DT_INT32"}}}, {"name": "PartitionedCall/strided_slice_31/stack", "op": "Const", "attr": {"value": {"tensor": {"dtype": "DT_INT32", "tensorShape": {"dim": [{"size": "1"}]}}}, "dtype": {"type": "DT_INT32"}}}, {"name": "PartitionedCall/strided_slice_31/stack_1", "op": "Const", "attr": {"value": {"tensor": {"dtype": "DT_INT32", "tensorShape": {"dim": [{"size": "1"}]}}}, "dtype": {"type": "DT_INT32"}}}, {"name": "PartitionedCall/strided_slice_31/stack_2", "op": "Const", "attr": {"value": {"tensor": {"dtype": "DT_INT32", "tensorShape": {"dim": [{"size": "1"}]}}}, "dtype": {"type": "DT_INT32"}}}, {"name": "PartitionedCall/strided_slice_32/stack", "op": "Const", "attr": {"value": {"tensor": {"dtype": "DT_INT32", "tensorShape": {"dim": [{"size": "1"}]}}}, "dtype": {"type": "DT_INT32"}}}, {"name": "PartitionedCall/strided_slice_32/stack_1", "op": "Const", "attr": {"value": {"tensor": {"dtype": "DT_INT32", "tensorShape": {"dim": [{"size": "1"}]}}}, "dtype": {"type": "DT_INT32"}}}, {"name": "PartitionedCall/strided_slice_32/stack_2", "op": "Const", "attr": {"value": {"tensor": {"dtype": "DT_INT32", "tensorShape": {"dim": [{"size": "1"}]}}}, "dtype": {"type": "DT_INT32"}}}, {"name": "PartitionedCall/sub_26/y", "op": "Const", "attr": {"value": {"tensor": {"dtype": "DT_INT32", "tensorShape": {}}}, "dtype": {"type": "DT_INT32"}}}, {"name": "PartitionedCall/sub_27/y", "op": "Const", "attr": {"value": {"tensor": {"dtype": "DT_INT32", "tensorShape": {}}}, "dtype": {"type": "DT_INT32"}}}, {"name": "PartitionedCall/strided_slice_33/stack", "op": "Const", "attr": {"value": {"tensor": {"dtype": "DT_INT32", "tensorShape": {"dim": [{"size": "1"}]}}}, "dtype": {"type": "DT_INT32"}}}, {"name": "PartitionedCall/strided_slice_33/stack_1", "op": "Const", "attr": {"value": {"tensor": {"dtype": "DT_INT32", "tensorShape": {"dim": [{"size": "1"}]}}}, "dtype": {"type": "DT_INT32"}}}, {"name": "PartitionedCall/strided_slice_33/stack_2", "op": "Const", "attr": {"value": {"tensor": {"dtype": "DT_INT32", "tensorShape": {"dim": [{"size": "1"}]}}}, "dtype": {"type": "DT_INT32"}}}, {"name": "PartitionedCall/sub_28/y", "op": "Const", "attr": {"value": {"tensor": {"dtype": "DT_INT32", "tensorShape": {}}}, "dtype": {"type": "DT_INT32"}}}, {"name": "PartitionedCall/sub_29/y", "op": "Const", "attr": {"value": {"tensor": {"dtype": "DT_INT32", "tensorShape": {}}}, "dtype": {"type": "DT_INT32"}}}, {"name": "PartitionedCall/strided_slice_30/stack", "op": "Const", "attr": {"value": {"tensor": {"dtype": "DT_INT32", "tensorShape": {"dim": [{"size": "1"}]}}}, "dtype": {"type": "DT_INT32"}}}, {"name": "PartitionedCall/strided_slice_30/stack_1", "op": "Const", "attr": {"value": {"tensor": {"dtype": "DT_INT32", "tensorShape": {"dim": [{"size": "1"}]}}}, "dtype": {"type": "DT_INT32"}}}, {"name": "PartitionedCall/strided_slice_30/stack_2", "op": "Const", "attr": {"value": {"tensor": {"dtype": "DT_INT32", "tensorShape": {"dim": [{"size": "1"}]}}}, "dtype": {"type": "DT_INT32"}}}, {"name": "PartitionedCall/mul_8/x", "op": "Const", "attr": {"value": {"tensor": {"dtype": "DT_INT32", "tensorShape": {}}}, "dtype": {"type": "DT_INT32"}}}, {"name": "PartitionedCall/strided_slice_28/stack", "op": "Const", "attr": {"value": {"tensor": {"dtype": "DT_INT32", "tensorShape": {"dim": [{"size": "1"}]}}}, "dtype": {"type": "DT_INT32"}}}, {"name": "PartitionedCall/strided_slice_28/stack_1", "op": "Const", "attr": {"value": {"tensor": {"dtype": "DT_INT32", "tensorShape": {"dim": [{"size": "1"}]}}}, "dtype": {"type": "DT_INT32"}}}, {"name": "PartitionedCall/strided_slice_28/stack_2", "op": "Const", "attr": {"value": {"tensor": {"dtype": "DT_INT32", "tensorShape": {"dim": [{"size": "1"}]}}}, "dtype": {"type": "DT_INT32"}}}, {"name": "PartitionedCall/sub_24/y", "op": "Const", "attr": {"value": {"tensor": {"dtype": "DT_INT32", "tensorShape": {}}}, "dtype": {"type": "DT_INT32"}}}, {"name": "PartitionedCall/add_16", "op": "Const", "attr": {"value": {"tensor": {"dtype": "DT_INT32", "tensorShape": {}}}, "dtype": {"type": "DT_INT32"}}}, {"name": "PartitionedCall/mul_9/x", "op": "Const", "attr": {"value": {"tensor": {"dtype": "DT_INT32", "tensorShape": {}}}, "dtype": {"type": "DT_INT32"}}}, {"name": "PartitionedCall/strided_slice_29/stack", "op": "Const", "attr": {"value": {"tensor": {"dtype": "DT_INT32", "tensorShape": {"dim": [{"size": "1"}]}}}, "dtype": {"type": "DT_INT32"}}}, {"name": "PartitionedCall/strided_slice_29/stack_1", "op": "Const", "attr": {"value": {"tensor": {"dtype": "DT_INT32", "tensorShape": {"dim": [{"size": "1"}]}}}, "dtype": {"type": "DT_INT32"}}}, {"name": "PartitionedCall/strided_slice_29/stack_2", "op": "Const", "attr": {"value": {"tensor": {"dtype": "DT_INT32", "tensorShape": {"dim": [{"size": "1"}]}}}, "dtype": {"type": "DT_INT32"}}}, {"name": "PartitionedCall/sub_25/y", "op": "Const", "attr": {"value": {"tensor": {"dtype": "DT_INT32", "tensorShape": {}}}, "dtype": {"type": "DT_INT32"}}}, {"name": "PartitionedCall/add_18", "op": "Const", "attr": {"value": {"tensor": {"dtype": "DT_INT32", "tensorShape": {}}}, "dtype": {"type": "DT_INT32"}}}, {"name": "PartitionedCall/conv2d_transpose_4/input_sizes/3", "op": "Const", "attr": {"value": {"tensor": {"dtype": "DT_INT32", "tensorShape": {}}}, "dtype": {"type": "DT_INT32"}}}, {"name": "PartitionedCall/split_4", "op": "Const", "attr": {"value": {"tensor": {"dtype": "DT_FLOAT", "tensorShape": {"dim": [{"size": "4"}, {"size": "4"}, {"size": "3"}, {"size": "64"}]}}}, "dtype": {"type": "DT_FLOAT"}}}, {"name": "PartitionedCall/Slice_3/begin", "op": "Const", "attr": {"value": {"tensor": {"dtype": "DT_INT32", "tensorShape": {"dim": [{"size": "4"}]}}}, "dtype": {"type": "DT_INT32"}}}, {"name": "PartitionedCall/strided_slice_24/stack", "op": "Const", "attr": {"value": {"tensor": {"dtype": "DT_INT32", "tensorShape": {"dim": [{"size": "1"}]}}}, "dtype": {"type": "DT_INT32"}}}, {"name": "PartitionedCall/strided_slice_24/stack_1", "op": "Const", "attr": {"value": {"tensor": {"dtype": "DT_INT32", "tensorShape": {"dim": [{"size": "1"}]}}}, "dtype": {"type": "DT_INT32"}}}, {"name": "PartitionedCall/strided_slice_24/stack_2", "op": "Const", "attr": {"value": {"tensor": {"dtype": "DT_INT32", "tensorShape": {"dim": [{"size": "1"}]}}}, "dtype": {"type": "DT_INT32"}}}, {"name": "PartitionedCall/strided_slice_25/stack", "op": "Const", "attr": {"value": {"tensor": {"dtype": "DT_INT32", "tensorShape": {"dim": [{"size": "1"}]}}}, "dtype": {"type": "DT_INT32"}}}, {"name": "PartitionedCall/strided_slice_25/stack_1", "op": "Const", "attr": {"value": {"tensor": {"dtype": "DT_INT32", "tensorShape": {"dim": [{"size": "1"}]}}}, "dtype": {"type": "DT_INT32"}}}, {"name": "PartitionedCall/strided_slice_25/stack_2", "op": "Const", "attr": {"value": {"tensor": {"dtype": "DT_INT32", "tensorShape": {"dim": [{"size": "1"}]}}}, "dtype": {"type": "DT_INT32"}}}, {"name": "PartitionedCall/sub_20/y", "op": "Const", "attr": {"value": {"tensor": {"dtype": "DT_INT32", "tensorShape": {}}}, "dtype": {"type": "DT_INT32"}}}, {"name": "PartitionedCall/sub_21/y", "op": "Const", "attr": {"value": {"tensor": {"dtype": "DT_INT32", "tensorShape": {}}}, "dtype": {"type": "DT_INT32"}}}, {"name": "PartitionedCall/strided_slice_26/stack", "op": "Const", "attr": {"value": {"tensor": {"dtype": "DT_INT32", "tensorShape": {"dim": [{"size": "1"}]}}}, "dtype": {"type": "DT_INT32"}}}, {"name": "PartitionedCall/strided_slice_26/stack_1", "op": "Const", "attr": {"value": {"tensor": {"dtype": "DT_INT32", "tensorShape": {"dim": [{"size": "1"}]}}}, "dtype": {"type": "DT_INT32"}}}, {"name": "PartitionedCall/strided_slice_26/stack_2", "op": "Const", "attr": {"value": {"tensor": {"dtype": "DT_INT32", "tensorShape": {"dim": [{"size": "1"}]}}}, "dtype": {"type": "DT_INT32"}}}, {"name": "PartitionedCall/sub_22/y", "op": "Const", "attr": {"value": {"tensor": {"dtype": "DT_INT32", "tensorShape": {}}}, "dtype": {"type": "DT_INT32"}}}, {"name": "PartitionedCall/sub_23/y", "op": "Const", "attr": {"value": {"tensor": {"dtype": "DT_INT32", "tensorShape": {}}}, "dtype": {"type": "DT_INT32"}}}, {"name": "PartitionedCall/strided_slice_23/stack", "op": "Const", "attr": {"value": {"tensor": {"dtype": "DT_INT32", "tensorShape": {"dim": [{"size": "1"}]}}}, "dtype": {"type": "DT_INT32"}}}, {"name": "PartitionedCall/strided_slice_23/stack_1", "op": "Const", "attr": {"value": {"tensor": {"dtype": "DT_INT32", "tensorShape": {"dim": [{"size": "1"}]}}}, "dtype": {"type": "DT_INT32"}}}, {"name": "PartitionedCall/strided_slice_23/stack_2", "op": "Const", "attr": {"value": {"tensor": {"dtype": "DT_INT32", "tensorShape": {"dim": [{"size": "1"}]}}}, "dtype": {"type": "DT_INT32"}}}, {"name": "PartitionedCall/mul_6/x", "op": "Const", "attr": {"value": {"tensor": {"dtype": "DT_INT32", "tensorShape": {}}}, "dtype": {"type": "DT_INT32"}}}, {"name": "PartitionedCall/strided_slice_21/stack", "op": "Const", "attr": {"value": {"tensor": {"dtype": "DT_INT32", "tensorShape": {"dim": [{"size": "1"}]}}}, "dtype": {"type": "DT_INT32"}}}, {"name": "PartitionedCall/strided_slice_21/stack_1", "op": "Const", "attr": {"value": {"tensor": {"dtype": "DT_INT32", "tensorShape": {"dim": [{"size": "1"}]}}}, "dtype": {"type": "DT_INT32"}}}, {"name": "PartitionedCall/strided_slice_21/stack_2", "op": "Const", "attr": {"value": {"tensor": {"dtype": "DT_INT32", "tensorShape": {"dim": [{"size": "1"}]}}}, "dtype": {"type": "DT_INT32"}}}, {"name": "PartitionedCall/sub_18/y", "op": "Const", "attr": {"value": {"tensor": {"dtype": "DT_INT32", "tensorShape": {}}}, "dtype": {"type": "DT_INT32"}}}, {"name": "PartitionedCall/add_12", "op": "Const", "attr": {"value": {"tensor": {"dtype": "DT_INT32", "tensorShape": {}}}, "dtype": {"type": "DT_INT32"}}}, {"name": "PartitionedCall/mul_7/x", "op": "Const", "attr": {"value": {"tensor": {"dtype": "DT_INT32", "tensorShape": {}}}, "dtype": {"type": "DT_INT32"}}}, {"name": "PartitionedCall/strided_slice_22/stack", "op": "Const", "attr": {"value": {"tensor": {"dtype": "DT_INT32", "tensorShape": {"dim": [{"size": "1"}]}}}, "dtype": {"type": "DT_INT32"}}}, {"name": "PartitionedCall/strided_slice_22/stack_1", "op": "Const", "attr": {"value": {"tensor": {"dtype": "DT_INT32", "tensorShape": {"dim": [{"size": "1"}]}}}, "dtype": {"type": "DT_INT32"}}}, {"name": "PartitionedCall/strided_slice_22/stack_2", "op": "Const", "attr": {"value": {"tensor": {"dtype": "DT_INT32", "tensorShape": {"dim": [{"size": "1"}]}}}, "dtype": {"type": "DT_INT32"}}}, {"name": "PartitionedCall/sub_19/y", "op": "Const", "attr": {"value": {"tensor": {"dtype": "DT_INT32", "tensorShape": {}}}, "dtype": {"type": "DT_INT32"}}}, {"name": "PartitionedCall/add_14", "op": "Const", "attr": {"value": {"tensor": {"dtype": "DT_INT32", "tensorShape": {}}}, "dtype": {"type": "DT_INT32"}}}, {"name": "PartitionedCall/conv2d_transpose_3/input_sizes/3", "op": "Const", "attr": {"value": {"tensor": {"dtype": "DT_INT32", "tensorShape": {}}}, "dtype": {"type": "DT_INT32"}}}, {"name": "PartitionedCall/split_3", "op": "Const", "attr": {"value": {"tensor": {"dtype": "DT_FLOAT", "tensorShape": {"dim": [{"size": "4"}, {"size": "4"}, {"size": "64"}, {"size": "128"}]}}}, "dtype": {"type": "DT_FLOAT"}}}, {"name": "PartitionedCall/Slice_2/begin", "op": "Const", "attr": {"value": {"tensor": {"dtype": "DT_INT32", "tensorShape": {"dim": [{"size": "4"}]}}}, "dtype": {"type": "DT_INT32"}}}, {"name": "PartitionedCall/strided_slice_17/stack", "op": "Const", "attr": {"value": {"tensor": {"dtype": "DT_INT32", "tensorShape": {"dim": [{"size": "1"}]}}}, "dtype": {"type": "DT_INT32"}}}, {"name": "PartitionedCall/strided_slice_17/stack_1", "op": "Const", "attr": {"value": {"tensor": {"dtype": "DT_INT32", "tensorShape": {"dim": [{"size": "1"}]}}}, "dtype": {"type": "DT_INT32"}}}, {"name": "PartitionedCall/strided_slice_17/stack_2", "op": "Const", "attr": {"value": {"tensor": {"dtype": "DT_INT32", "tensorShape": {"dim": [{"size": "1"}]}}}, "dtype": {"type": "DT_INT32"}}}, {"name": "PartitionedCall/strided_slice_18/stack", "op": "Const", "attr": {"value": {"tensor": {"dtype": "DT_INT32", "tensorShape": {"dim": [{"size": "1"}]}}}, "dtype": {"type": "DT_INT32"}}}, {"name": "PartitionedCall/strided_slice_18/stack_1", "op": "Const", "attr": {"value": {"tensor": {"dtype": "DT_INT32", "tensorShape": {"dim": [{"size": "1"}]}}}, "dtype": {"type": "DT_INT32"}}}, {"name": "PartitionedCall/strided_slice_18/stack_2", "op": "Const", "attr": {"value": {"tensor": {"dtype": "DT_INT32", "tensorShape": {"dim": [{"size": "1"}]}}}, "dtype": {"type": "DT_INT32"}}}, {"name": "PartitionedCall/sub_14/y", "op": "Const", "attr": {"value": {"tensor": {"dtype": "DT_INT32", "tensorShape": {}}}, "dtype": {"type": "DT_INT32"}}}, {"name": "PartitionedCall/sub_15/y", "op": "Const", "attr": {"value": {"tensor": {"dtype": "DT_INT32", "tensorShape": {}}}, "dtype": {"type": "DT_INT32"}}}, {"name": "PartitionedCall/strided_slice_19/stack", "op": "Const", "attr": {"value": {"tensor": {"dtype": "DT_INT32", "tensorShape": {"dim": [{"size": "1"}]}}}, "dtype": {"type": "DT_INT32"}}}, {"name": "PartitionedCall/strided_slice_19/stack_1", "op": "Const", "attr": {"value": {"tensor": {"dtype": "DT_INT32", "tensorShape": {"dim": [{"size": "1"}]}}}, "dtype": {"type": "DT_INT32"}}}, {"name": "PartitionedCall/strided_slice_19/stack_2", "op": "Const", "attr": {"value": {"tensor": {"dtype": "DT_INT32", "tensorShape": {"dim": [{"size": "1"}]}}}, "dtype": {"type": "DT_INT32"}}}, {"name": "PartitionedCall/sub_16/y", "op": "Const", "attr": {"value": {"tensor": {"dtype": "DT_INT32", "tensorShape": {}}}, "dtype": {"type": "DT_INT32"}}}, {"name": "PartitionedCall/sub_17/y", "op": "Const", "attr": {"value": {"tensor": {"dtype": "DT_INT32", "tensorShape": {}}}, "dtype": {"type": "DT_INT32"}}}, {"name": "PartitionedCall/strided_slice_16/stack", "op": "Const", "attr": {"value": {"tensor": {"dtype": "DT_INT32", "tensorShape": {"dim": [{"size": "1"}]}}}, "dtype": {"type": "DT_INT32"}}}, {"name": "PartitionedCall/strided_slice_16/stack_1", "op": "Const", "attr": {"value": {"tensor": {"dtype": "DT_INT32", "tensorShape": {"dim": [{"size": "1"}]}}}, "dtype": {"type": "DT_INT32"}}}, {"name": "PartitionedCall/strided_slice_16/stack_2", "op": "Const", "attr": {"value": {"tensor": {"dtype": "DT_INT32", "tensorShape": {"dim": [{"size": "1"}]}}}, "dtype": {"type": "DT_INT32"}}}, {"name": "PartitionedCall/mul_4/x", "op": "Const", "attr": {"value": {"tensor": {"dtype": "DT_INT32", "tensorShape": {}}}, "dtype": {"type": "DT_INT32"}}}, {"name": "PartitionedCall/strided_slice_14/stack", "op": "Const", "attr": {"value": {"tensor": {"dtype": "DT_INT32", "tensorShape": {"dim": [{"size": "1"}]}}}, "dtype": {"type": "DT_INT32"}}}, {"name": "PartitionedCall/strided_slice_14/stack_1", "op": "Const", "attr": {"value": {"tensor": {"dtype": "DT_INT32", "tensorShape": {"dim": [{"size": "1"}]}}}, "dtype": {"type": "DT_INT32"}}}, {"name": "PartitionedCall/strided_slice_14/stack_2", "op": "Const", "attr": {"value": {"tensor": {"dtype": "DT_INT32", "tensorShape": {"dim": [{"size": "1"}]}}}, "dtype": {"type": "DT_INT32"}}}, {"name": "PartitionedCall/sub_12/y", "op": "Const", "attr": {"value": {"tensor": {"dtype": "DT_INT32", "tensorShape": {}}}, "dtype": {"type": "DT_INT32"}}}, {"name": "PartitionedCall/add_8", "op": "Const", "attr": {"value": {"tensor": {"dtype": "DT_INT32", "tensorShape": {}}}, "dtype": {"type": "DT_INT32"}}}, {"name": "PartitionedCall/mul_5/x", "op": "Const", "attr": {"value": {"tensor": {"dtype": "DT_INT32", "tensorShape": {}}}, "dtype": {"type": "DT_INT32"}}}, {"name": "PartitionedCall/strided_slice_15/stack", "op": "Const", "attr": {"value": {"tensor": {"dtype": "DT_INT32", "tensorShape": {"dim": [{"size": "1"}]}}}, "dtype": {"type": "DT_INT32"}}}, {"name": "PartitionedCall/strided_slice_15/stack_1", "op": "Const", "attr": {"value": {"tensor": {"dtype": "DT_INT32", "tensorShape": {"dim": [{"size": "1"}]}}}, "dtype": {"type": "DT_INT32"}}}, {"name": "PartitionedCall/strided_slice_15/stack_2", "op": "Const", "attr": {"value": {"tensor": {"dtype": "DT_INT32", "tensorShape": {"dim": [{"size": "1"}]}}}, "dtype": {"type": "DT_INT32"}}}, {"name": "PartitionedCall/sub_13/y", "op": "Const", "attr": {"value": {"tensor": {"dtype": "DT_INT32", "tensorShape": {}}}, "dtype": {"type": "DT_INT32"}}}, {"name": "PartitionedCall/add_10", "op": "Const", "attr": {"value": {"tensor": {"dtype": "DT_INT32", "tensorShape": {}}}, "dtype": {"type": "DT_INT32"}}}, {"name": "PartitionedCall/conv2d_transpose_2/input_sizes/3", "op": "Const", "attr": {"value": {"tensor": {"dtype": "DT_INT32", "tensorShape": {}}}, "dtype": {"type": "DT_INT32"}}}, {"name": "PartitionedCall/split_2", "op": "Const", "attr": {"value": {"tensor": {"dtype": "DT_FLOAT", "tensorShape": {"dim": [{"size": "4"}, {"size": "4"}, {"size": "128"}, {"size": "256"}]}}}, "dtype": {"type": "DT_FLOAT"}}}, {"name": "PartitionedCall/Slice_1/begin", "op": "Const", "attr": {"value": {"tensor": {"dtype": "DT_INT32", "tensorShape": {"dim": [{"size": "4"}]}}}, "dtype": {"type": "DT_INT32"}}}, {"name": "PartitionedCall/strided_slice_10/stack", "op": "Const", "attr": {"value": {"tensor": {"dtype": "DT_INT32", "tensorShape": {"dim": [{"size": "1"}]}}}, "dtype": {"type": "DT_INT32"}}}, {"name": "PartitionedCall/strided_slice_10/stack_1", "op": "Const", "attr": {"value": {"tensor": {"dtype": "DT_INT32", "tensorShape": {"dim": [{"size": "1"}]}}}, "dtype": {"type": "DT_INT32"}}}, {"name": "PartitionedCall/strided_slice_10/stack_2", "op": "Const", "attr": {"value": {"tensor": {"dtype": "DT_INT32", "tensorShape": {"dim": [{"size": "1"}]}}}, "dtype": {"type": "DT_INT32"}}}, {"name": "PartitionedCall/strided_slice_11/stack", "op": "Const", "attr": {"value": {"tensor": {"dtype": "DT_INT32", "tensorShape": {"dim": [{"size": "1"}]}}}, "dtype": {"type": "DT_INT32"}}}, {"name": "PartitionedCall/strided_slice_11/stack_1", "op": "Const", "attr": {"value": {"tensor": {"dtype": "DT_INT32", "tensorShape": {"dim": [{"size": "1"}]}}}, "dtype": {"type": "DT_INT32"}}}, {"name": "PartitionedCall/strided_slice_11/stack_2", "op": "Const", "attr": {"value": {"tensor": {"dtype": "DT_INT32", "tensorShape": {"dim": [{"size": "1"}]}}}, "dtype": {"type": "DT_INT32"}}}, {"name": "PartitionedCall/sub_8/y", "op": "Const", "attr": {"value": {"tensor": {"dtype": "DT_INT32", "tensorShape": {}}}, "dtype": {"type": "DT_INT32"}}}, {"name": "PartitionedCall/sub_9/y", "op": "Const", "attr": {"value": {"tensor": {"dtype": "DT_INT32", "tensorShape": {}}}, "dtype": {"type": "DT_INT32"}}}, {"name": "PartitionedCall/strided_slice_12/stack", "op": "Const", "attr": {"value": {"tensor": {"dtype": "DT_INT32", "tensorShape": {"dim": [{"size": "1"}]}}}, "dtype": {"type": "DT_INT32"}}}, {"name": "PartitionedCall/strided_slice_12/stack_1", "op": "Const", "attr": {"value": {"tensor": {"dtype": "DT_INT32", "tensorShape": {"dim": [{"size": "1"}]}}}, "dtype": {"type": "DT_INT32"}}}, {"name": "PartitionedCall/strided_slice_12/stack_2", "op": "Const", "attr": {"value": {"tensor": {"dtype": "DT_INT32", "tensorShape": {"dim": [{"size": "1"}]}}}, "dtype": {"type": "DT_INT32"}}}, {"name": "PartitionedCall/sub_10/y", "op": "Const", "attr": {"value": {"tensor": {"dtype": "DT_INT32", "tensorShape": {}}}, "dtype": {"type": "DT_INT32"}}}, {"name": "PartitionedCall/sub_11/y", "op": "Const", "attr": {"value": {"tensor": {"dtype": "DT_INT32", "tensorShape": {}}}, "dtype": {"type": "DT_INT32"}}}, {"name": "PartitionedCall/strided_slice_9/stack", "op": "Const", "attr": {"value": {"tensor": {"dtype": "DT_INT32", "tensorShape": {"dim": [{"size": "1"}]}}}, "dtype": {"type": "DT_INT32"}}}, {"name": "PartitionedCall/strided_slice_9/stack_1", "op": "Const", "attr": {"value": {"tensor": {"dtype": "DT_INT32", "tensorShape": {"dim": [{"size": "1"}]}}}, "dtype": {"type": "DT_INT32"}}}, {"name": "PartitionedCall/strided_slice_9/stack_2", "op": "Const", "attr": {"value": {"tensor": {"dtype": "DT_INT32", "tensorShape": {"dim": [{"size": "1"}]}}}, "dtype": {"type": "DT_INT32"}}}, {"name": "PartitionedCall/mul_2/x", "op": "Const", "attr": {"value": {"tensor": {"dtype": "DT_INT32", "tensorShape": {}}}, "dtype": {"type": "DT_INT32"}}}, {"name": "PartitionedCall/strided_slice_7/stack", "op": "Const", "attr": {"value": {"tensor": {"dtype": "DT_INT32", "tensorShape": {"dim": [{"size": "1"}]}}}, "dtype": {"type": "DT_INT32"}}}, {"name": "PartitionedCall/strided_slice_7/stack_1", "op": "Const", "attr": {"value": {"tensor": {"dtype": "DT_INT32", "tensorShape": {"dim": [{"size": "1"}]}}}, "dtype": {"type": "DT_INT32"}}}, {"name": "PartitionedCall/strided_slice_7/stack_2", "op": "Const", "attr": {"value": {"tensor": {"dtype": "DT_INT32", "tensorShape": {"dim": [{"size": "1"}]}}}, "dtype": {"type": "DT_INT32"}}}, {"name": "PartitionedCall/sub_6/y", "op": "Const", "attr": {"value": {"tensor": {"dtype": "DT_INT32", "tensorShape": {}}}, "dtype": {"type": "DT_INT32"}}}, {"name": "PartitionedCall/add_4", "op": "Const", "attr": {"value": {"tensor": {"dtype": "DT_INT32", "tensorShape": {}}}, "dtype": {"type": "DT_INT32"}}}, {"name": "PartitionedCall/mul_3/x", "op": "Const", "attr": {"value": {"tensor": {"dtype": "DT_INT32", "tensorShape": {}}}, "dtype": {"type": "DT_INT32"}}}, {"name": "PartitionedCall/strided_slice_8/stack", "op": "Const", "attr": {"value": {"tensor": {"dtype": "DT_INT32", "tensorShape": {"dim": [{"size": "1"}]}}}, "dtype": {"type": "DT_INT32"}}}, {"name": "PartitionedCall/strided_slice_8/stack_1", "op": "Const", "attr": {"value": {"tensor": {"dtype": "DT_INT32", "tensorShape": {"dim": [{"size": "1"}]}}}, "dtype": {"type": "DT_INT32"}}}, {"name": "PartitionedCall/strided_slice_8/stack_2", "op": "Const", "attr": {"value": {"tensor": {"dtype": "DT_INT32", "tensorShape": {"dim": [{"size": "1"}]}}}, "dtype": {"type": "DT_INT32"}}}, {"name": "PartitionedCall/sub_7/y", "op": "Const", "attr": {"value": {"tensor": {"dtype": "DT_INT32", "tensorShape": {}}}, "dtype": {"type": "DT_INT32"}}}, {"name": "PartitionedCall/add_6", "op": "Const", "attr": {"value": {"tensor": {"dtype": "DT_INT32", "tensorShape": {}}}, "dtype": {"type": "DT_INT32"}}}, {"name": "PartitionedCall/conv2d_transpose_1/input_sizes/3", "op": "Const", "attr": {"value": {"tensor": {"dtype": "DT_INT32", "tensorShape": {}}}, "dtype": {"type": "DT_INT32"}}}, {"name": "PartitionedCall/split_1", "op": "Const", "attr": {"value": {"tensor": {"dtype": "DT_FLOAT", "tensorShape": {"dim": [{"size": "4"}, {"size": "4"}, {"size": "256"}, {"size": "512"}]}}}, "dtype": {"type": "DT_FLOAT"}}}, {"name": "PartitionedCall/Slice/begin", "op": "Const", "attr": {"value": {"tensor": {"dtype": "DT_INT32", "tensorShape": {"dim": [{"size": "4"}]}}}, "dtype": {"type": "DT_INT32"}}}, {"name": "PartitionedCall/strided_slice_3/stack", "op": "Const", "attr": {"value": {"tensor": {"dtype": "DT_INT32", "tensorShape": {"dim": [{"size": "1"}]}}}, "dtype": {"type": "DT_INT32"}}}, {"name": "PartitionedCall/strided_slice_3/stack_1", "op": "Const", "attr": {"value": {"tensor": {"dtype": "DT_INT32", "tensorShape": {"dim": [{"size": "1"}]}}}, "dtype": {"type": "DT_INT32"}}}, {"name": "PartitionedCall/strided_slice_3/stack_2", "op": "Const", "attr": {"value": {"tensor": {"dtype": "DT_INT32", "tensorShape": {"dim": [{"size": "1"}]}}}, "dtype": {"type": "DT_INT32"}}}, {"name": "PartitionedCall/strided_slice_4/stack", "op": "Const", "attr": {"value": {"tensor": {"dtype": "DT_INT32", "tensorShape": {"dim": [{"size": "1"}]}}}, "dtype": {"type": "DT_INT32"}}}, {"name": "PartitionedCall/strided_slice_4/stack_1", "op": "Const", "attr": {"value": {"tensor": {"dtype": "DT_INT32", "tensorShape": {"dim": [{"size": "1"}]}}}, "dtype": {"type": "DT_INT32"}}}, {"name": "PartitionedCall/strided_slice_4/stack_2", "op": "Const", "attr": {"value": {"tensor": {"dtype": "DT_INT32", "tensorShape": {"dim": [{"size": "1"}]}}}, "dtype": {"type": "DT_INT32"}}}, {"name": "PartitionedCall/strided_slice_5/stack", "op": "Const", "attr": {"value": {"tensor": {"dtype": "DT_INT32", "tensorShape": {"dim": [{"size": "1"}]}}}, "dtype": {"type": "DT_INT32"}}}, {"name": "PartitionedCall/strided_slice_5/stack_1", "op": "Const", "attr": {"value": {"tensor": {"dtype": "DT_INT32", "tensorShape": {"dim": [{"size": "1"}]}}}, "dtype": {"type": "DT_INT32"}}}, {"name": "PartitionedCall/strided_slice_5/stack_2", "op": "Const", "attr": {"value": {"tensor": {"dtype": "DT_INT32", "tensorShape": {"dim": [{"size": "1"}]}}}, "dtype": {"type": "DT_INT32"}}}, {"name": "PartitionedCall/strided_slice_2/stack", "op": "Const", "attr": {"value": {"tensor": {"dtype": "DT_INT32", "tensorShape": {"dim": [{"size": "1"}]}}}, "dtype": {"type": "DT_INT32"}}}, {"name": "PartitionedCall/strided_slice_2/stack_1", "op": "Const", "attr": {"value": {"tensor": {"dtype": "DT_INT32", "tensorShape": {"dim": [{"size": "1"}]}}}, "dtype": {"type": "DT_INT32"}}}, {"name": "PartitionedCall/strided_slice_2/stack_2", "op": "Const", "attr": {"value": {"tensor": {"dtype": "DT_INT32", "tensorShape": {"dim": [{"size": "1"}]}}}, "dtype": {"type": "DT_INT32"}}}, {"name": "PartitionedCall/strided_slice/stack", "op": "Const", "attr": {"value": {"tensor": {"dtype": "DT_INT32", "tensorShape": {"dim": [{"size": "1"}]}}}, "dtype": {"type": "DT_INT32"}}}, {"name": "PartitionedCall/strided_slice/stack_1", "op": "Const", "attr": {"value": {"tensor": {"dtype": "DT_INT32", "tensorShape": {"dim": [{"size": "1"}]}}}, "dtype": {"type": "DT_INT32"}}}, {"name": "PartitionedCall/strided_slice/stack_2", "op": "Const", "attr": {"value": {"tensor": {"dtype": "DT_INT32", "tensorShape": {"dim": [{"size": "1"}]}}}, "dtype": {"type": "DT_INT32"}}}, {"name": "PartitionedCall/sub/y", "op": "Const", "attr": {"value": {"tensor": {"dtype": "DT_INT32", "tensorShape": {}}}, "dtype": {"type": "DT_INT32"}}}, {"name": "PartitionedCall/add", "op": "Const", "attr": {"value": {"tensor": {"dtype": "DT_INT32", "tensorShape": {}}}, "dtype": {"type": "DT_INT32"}}}, {"name": "PartitionedCall/strided_slice_1/stack", "op": "Const", "attr": {"value": {"tensor": {"dtype": "DT_INT32", "tensorShape": {"dim": [{"size": "1"}]}}}, "dtype": {"type": "DT_INT32"}}}, {"name": "PartitionedCall/strided_slice_1/stack_1", "op": "Const", "attr": {"value": {"tensor": {"dtype": "DT_INT32", "tensorShape": {"dim": [{"size": "1"}]}}}, "dtype": {"type": "DT_INT32"}}}, {"name": "PartitionedCall/strided_slice_1/stack_2", "op": "Const", "attr": {"value": {"tensor": {"dtype": "DT_INT32", "tensorShape": {"dim": [{"size": "1"}]}}}, "dtype": {"type": "DT_INT32"}}}, {"name": "PartitionedCall/sub_1/y", "op": "Const", "attr": {"value": {"tensor": {"dtype": "DT_INT32", "tensorShape": {}}}, "dtype": {"type": "DT_INT32"}}}, {"name": "PartitionedCall/add_2", "op": "Const", "attr": {"value": {"tensor": {"dtype": "DT_INT32", "tensorShape": {}}}, "dtype": {"type": "DT_INT32"}}}, {"name": "PartitionedCall/conv2d_transpose/input_sizes/3", "op": "Const", "attr": {"value": {"tensor": {"dtype": "DT_INT32", "tensorShape": {}}}, "dtype": {"type": "DT_INT32"}}}, {"name": "PartitionedCall/split", "op": "Const", "attr": {"value": {"tensor": {"dtype": "DT_FLOAT", "tensorShape": {"dim": [{"size": "4"}, {"size": "4"}, {"size": "512"}, {"size": "128"}]}}}, "dtype": {"type": "DT_FLOAT"}}}, {"name": "PartitionedCall/transpose_1/perm", "op": "Const", "attr": {"value": {"tensor": {"dtype": "DT_INT32", "tensorShape": {"dim": [{"size": "4"}]}}}, "dtype": {"type": "DT_INT32"}}}, {"name": "PartitionedCall/strided_slice_6/stack", "op": "Const", "attr": {"value": {"tensor": {"dtype": "DT_INT32", "tensorShape": {"dim": [{"size": "1"}]}}}, "dtype": {"type": "DT_INT32"}}}, {"name": "PartitionedCall/strided_slice_6/stack_1", "op": "Const", "attr": {"value": {"tensor": {"dtype": "DT_INT32", "tensorShape": {"dim": [{"size": "1"}]}}}, "dtype": {"type": "DT_INT32"}}}, {"name": "PartitionedCall/strided_slice_6/stack_2", "op": "Const", "attr": {"value": {"tensor": {"dtype": "DT_INT32", "tensorShape": {"dim": [{"size": "1"}]}}}, "dtype": {"type": "DT_INT32"}}}, {"name": "PartitionedCall/transpose_2/perm", "op": "Const", "attr": {"value": {"tensor": {"dtype": "DT_INT32", "tensorShape": {"dim": [{"size": "4"}]}}}, "dtype": {"type": "DT_INT32"}}}, {"name": "PartitionedCall/onnx_tf_prefix_/main/main.1/BatchNormalization/mul", "op": "Const", "attr": {"value": {"tensor": {"dtype": "DT_FLOAT", "tensorShape": {"dim": [{"size": "1"}, {"size": "512"}, {"size": "1"}, {"size": "1"}]}}}, "dtype": {"type": "DT_FLOAT"}}}, {"name": "PartitionedCall/onnx_tf_prefix_/main/main.1/BatchNormalization/sub", "op": "Const", "attr": {"value": {"tensor": {"dtype": "DT_FLOAT", "tensorShape": {"dim": [{"size": "1"}, {"size": "512"}, {"size": "1"}, {"size": "1"}]}}}, "dtype": {"type": "DT_FLOAT"}}}, {"name": "PartitionedCall/transpose_4/perm", "op": "Const", "attr": {"value": {"tensor": {"dtype": "DT_INT32", "tensorShape": {"dim": [{"size": "4"}]}}}, "dtype": {"type": "DT_INT32"}}}, {"name": "PartitionedCall/strided_slice_13/stack", "op": "Const", "attr": {"value": {"tensor": {"dtype": "DT_INT32", "tensorShape": {"dim": [{"size": "1"}]}}}, "dtype": {"type": "DT_INT32"}}}, {"name": "PartitionedCall/strided_slice_13/stack_1", "op": "Const", "attr": {"value": {"tensor": {"dtype": "DT_INT32", "tensorShape": {"dim": [{"size": "1"}]}}}, "dtype": {"type": "DT_INT32"}}}, {"name": "PartitionedCall/strided_slice_13/stack_2", "op": "Const", "attr": {"value": {"tensor": {"dtype": "DT_INT32", "tensorShape": {"dim": [{"size": "1"}]}}}, "dtype": {"type": "DT_INT32"}}}, {"name": "PartitionedCall/transpose_5/perm", "op": "Const", "attr": {"value": {"tensor": {"dtype": "DT_INT32", "tensorShape": {"dim": [{"size": "4"}]}}}, "dtype": {"type": "DT_INT32"}}}, {"name": "PartitionedCall/onnx_tf_prefix_/main/main.4/BatchNormalization/mul", "op": "Const", "attr": {"value": {"tensor": {"dtype": "DT_FLOAT", "tensorShape": {"dim": [{"size": "1"}, {"size": "256"}, {"size": "1"}, {"size": "1"}]}}}, "dtype": {"type": "DT_FLOAT"}}}, {"name": "PartitionedCall/onnx_tf_prefix_/main/main.4/BatchNormalization/sub", "op": "Const", "attr": {"value": {"tensor": {"dtype": "DT_FLOAT", "tensorShape": {"dim": [{"size": "1"}, {"size": "256"}, {"size": "1"}, {"size": "1"}]}}}, "dtype": {"type": "DT_FLOAT"}}}, {"name": "PartitionedCall/transpose_7/perm", "op": "Const", "attr": {"value": {"tensor": {"dtype": "DT_INT32", "tensorShape": {"dim": [{"size": "4"}]}}}, "dtype": {"type": "DT_INT32"}}}, {"name": "PartitionedCall/strided_slice_20/stack", "op": "Const", "attr": {"value": {"tensor": {"dtype": "DT_INT32", "tensorShape": {"dim": [{"size": "1"}]}}}, "dtype": {"type": "DT_INT32"}}}, {"name": "PartitionedCall/strided_slice_20/stack_1", "op": "Const", "attr": {"value": {"tensor": {"dtype": "DT_INT32", "tensorShape": {"dim": [{"size": "1"}]}}}, "dtype": {"type": "DT_INT32"}}}, {"name": "PartitionedCall/strided_slice_20/stack_2", "op": "Const", "attr": {"value": {"tensor": {"dtype": "DT_INT32", "tensorShape": {"dim": [{"size": "1"}]}}}, "dtype": {"type": "DT_INT32"}}}, {"name": "PartitionedCall/transpose_8/perm", "op": "Const", "attr": {"value": {"tensor": {"dtype": "DT_INT32", "tensorShape": {"dim": [{"size": "4"}]}}}, "dtype": {"type": "DT_INT32"}}}, {"name": "PartitionedCall/onnx_tf_prefix_/main/main.7/BatchNormalization/mul", "op": "Const", "attr": {"value": {"tensor": {"dtype": "DT_FLOAT", "tensorShape": {"dim": [{"size": "1"}, {"size": "128"}, {"size": "1"}, {"size": "1"}]}}}, "dtype": {"type": "DT_FLOAT"}}}, {"name": "PartitionedCall/onnx_tf_prefix_/main/main.7/BatchNormalization/sub", "op": "Const", "attr": {"value": {"tensor": {"dtype": "DT_FLOAT", "tensorShape": {"dim": [{"size": "1"}, {"size": "128"}, {"size": "1"}, {"size": "1"}]}}}, "dtype": {"type": "DT_FLOAT"}}}, {"name": "PartitionedCall/transpose_10/perm", "op": "Const", "attr": {"value": {"tensor": {"dtype": "DT_INT32", "tensorShape": {"dim": [{"size": "4"}]}}}, "dtype": {"type": "DT_INT32"}}}, {"name": "PartitionedCall/strided_slice_27/stack", "op": "Const", "attr": {"value": {"tensor": {"dtype": "DT_INT32", "tensorShape": {"dim": [{"size": "1"}]}}}, "dtype": {"type": "DT_INT32"}}}, {"name": "PartitionedCall/strided_slice_27/stack_1", "op": "Const", "attr": {"value": {"tensor": {"dtype": "DT_INT32", "tensorShape": {"dim": [{"size": "1"}]}}}, "dtype": {"type": "DT_INT32"}}}, {"name": "PartitionedCall/strided_slice_27/stack_2", "op": "Const", "attr": {"value": {"tensor": {"dtype": "DT_INT32", "tensorShape": {"dim": [{"size": "1"}]}}}, "dtype": {"type": "DT_INT32"}}}, {"name": "PartitionedCall/transpose_11/perm", "op": "Const", "attr": {"value": {"tensor": {"dtype": "DT_INT32", "tensorShape": {"dim": [{"size": "4"}]}}}, "dtype": {"type": "DT_INT32"}}}, {"name": "PartitionedCall/onnx_tf_prefix_/main/main.10/BatchNormalization/mul", "op": "Const", "attr": {"value": {"tensor": {"dtype": "DT_FLOAT", "tensorShape": {"dim": [{"size": "1"}, {"size": "64"}, {"size": "1"}, {"size": "1"}]}}}, "dtype": {"type": "DT_FLOAT"}}}, {"name": "PartitionedCall/onnx_tf_prefix_/main/main.10/BatchNormalization/sub", "op": "Const", "attr": {"value": {"tensor": {"dtype": "DT_FLOAT", "tensorShape": {"dim": [{"size": "1"}, {"size": "64"}, {"size": "1"}, {"size": "1"}]}}}, "dtype": {"type": "DT_FLOAT"}}}, {"name": "PartitionedCall/transpose_13/perm", "op": "Const", "attr": {"value": {"tensor": {"dtype": "DT_INT32", "tensorShape": {"dim": [{"size": "4"}]}}}, "dtype": {"type": "DT_INT32"}}}, {"name": "PartitionedCall/strided_slice_34/stack", "op": "Const", "attr": {"value": {"tensor": {"dtype": "DT_INT32", "tensorShape": {"dim": [{"size": "1"}]}}}, "dtype": {"type": "DT_INT32"}}}, {"name": "PartitionedCall/strided_slice_34/stack_1", "op": "Const", "attr": {"value": {"tensor": {"dtype": "DT_INT32", "tensorShape": {"dim": [{"size": "1"}]}}}, "dtype": {"type": "DT_INT32"}}}, {"name": "PartitionedCall/strided_slice_34/stack_2", "op": "Const", "attr": {"value": {"tensor": {"dtype": "DT_INT32", "tensorShape": {"dim": [{"size": "1"}]}}}, "dtype": {"type": "DT_INT32"}}}, {"name": "PartitionedCall/transpose_14/perm", "op": "Const", "attr": {"value": {"tensor": {"dtype": "DT_INT32", "tensorShape": {"dim": [{"size": "4"}]}}}, "dtype": {"type": "DT_INT32"}}}, {"name": "input", "op": "Placeholder", "attr": {"shape": {"shape": {"dim": [{"size": "-1"}, {"size": "128"}, {"size": "1"}, {"size": "1"}]}}, "dtype": {"type": "DT_FLOAT"}}}, {"name": "PartitionedCall/Shape", "op": "Shape", "input": ["input"], "attr": {"T": {"type": "DT_FLOAT"}, "out_type": {"type": "DT_INT32"}}, "experimentalType": {"typeId": "TFT_PRODUCT", "args": [{"typeId": "TFT_SHAPE_TENSOR", "args": [{"typeId": "TFT_INT32"}]}]}}, {"name": "PartitionedCall/transpose_1", "op": "Transpose", "input": ["input", "PartitionedCall/transpose_1/perm"], "attr": {"Tperm": {"type": "DT_INT32"}, "_input_shapes": {"list": {"shape": [{"dim": [{"size": "-3"}, {"size": "128"}, {"size": "-13"}, {"size": "-14"}]}, {"dim": [{"size": "4"}]}]}}, "T": {"type": "DT_FLOAT"}}}, {"name": "PartitionedCall/strided_slice_2", "op": "StridedSlice", "input": ["PartitionedCall/Shape", "PartitionedCall/strided_slice_2/stack", "PartitionedCall/strided_slice_2/stack_1", "PartitionedCall/strided_slice_2/stack_2"], "attr": {"shrink_axis_mask": {"i": "1"}, "Index": {"type": "DT_INT32"}, "new_axis_mask": {"i": "0"}, "begin_mask": {"i": "0"}, "end_mask": {"i": "0"}, "T": {"type": "DT_INT32"}, "ellipsis_mask": {"i": "0"}}}, {"name": "PartitionedCall/strided_slice", "op": "StridedSlice", "input": ["PartitionedCall/Shape", "PartitionedCall/strided_slice/stack", "PartitionedCall/strided_slice/stack_1", "PartitionedCall/strided_slice/stack_2"], "attr": {"shrink_axis_mask": {"i": "1"}, "new_axis_mask": {"i": "0"}, "Index": {"type": "DT_INT32"}, "begin_mask": {"i": "0"}, "end_mask": {"i": "0"}, "T": {"type": "DT_INT32"}, "ellipsis_mask": {"i": "0"}}}, {"name": "PartitionedCall/strided_slice_1", "op": "StridedSlice", "input": ["PartitionedCall/Shape", "PartitionedCall/strided_slice_1/stack", "PartitionedCall/strided_slice_1/stack_1", "PartitionedCall/strided_slice_1/stack_2"], "attr": {"shrink_axis_mask": {"i": "1"}, "Index": {"type": "DT_INT32"}, "new_axis_mask": {"i": "0"}, "begin_mask": {"i": "0"}, "T": {"type": "DT_INT32"}, "end_mask": {"i": "0"}, "ellipsis_mask": {"i": "0"}}}, {"name": "PartitionedCall/sub", "op": "Sub", "input": ["PartitionedCall/strided_slice", "PartitionedCall/sub/y"], "attr": {"T": {"type": "DT_INT32"}}}, {"name": "PartitionedCall/sub_1", "op": "Sub", "input": ["PartitionedCall/strided_slice_1", "PartitionedCall/sub_1/y"], "attr": {"T": {"type": "DT_INT32"}}}, {"name": "PartitionedCall/add_1", "op": "AddV2", "input": ["PartitionedCall/sub", "PartitionedCall/add"], "attr": {"T": {"type": "DT_INT32"}}}, {"name": "PartitionedCall/add_3", "op": "AddV2", "input": ["PartitionedCall/sub_1", "PartitionedCall/add_2"], "attr": {"T": {"type": "DT_INT32"}}}, {"name": "PartitionedCall/conv2d_transpose/input_sizes", "op": "Pack", "input": ["PartitionedCall/strided_slice_2", "PartitionedCall/add_1", "PartitionedCall/add_3", "PartitionedCall/conv2d_transpose/input_sizes/3"], "attr": {"N": {"i": "4"}, "axis": {"i": "0"}, "T": {"type": "DT_INT32"}}}, {"name": "PartitionedCall/conv2d_transpose", "op": "Conv2DBackpropInput", "input": ["PartitionedCall/conv2d_transpose/input_sizes", "PartitionedCall/split", "PartitionedCall/transpose_1"], "attr": {"padding": {"s": "VkFMSUQ="}, "data_format": {"s": "TkhXQw=="}, "use_cudnn_on_gpu": {"b": true}, "strides": {"list": {"i": ["1", "1", "1", "1"]}}, "T": {"type": "DT_FLOAT"}, "explicit_paddings": {"list": {}}, "dilations": {"list": {"i": ["1", "1", "1", "1"]}}}}, {"name": "PartitionedCall/Shape_1", "op": "Shape", "input": ["PartitionedCall/conv2d_transpose"], "attr": {"T": {"type": "DT_FLOAT"}, "out_type": {"type": "DT_INT32"}}, "experimentalType": {"typeId": "TFT_PRODUCT", "args": [{"typeId": "TFT_SHAPE_TENSOR", "args": [{"typeId": "TFT_INT32"}]}]}}, {"name": "PartitionedCall/strided_slice_3", "op": "StridedSlice", "input": ["PartitionedCall/Shape_1", "PartitionedCall/strided_slice_3/stack", "PartitionedCall/strided_slice_3/stack_1", "PartitionedCall/strided_slice_3/stack_2"], "attr": {"shrink_axis_mask": {"i": "1"}, "new_axis_mask": {"i": "0"}, "Index": {"type": "DT_INT32"}, "begin_mask": {"i": "0"}, "end_mask": {"i": "0"}, "T": {"type": "DT_INT32"}, "ellipsis_mask": {"i": "0"}}}, {"name": "PartitionedCall/strided_slice_4", "op": "StridedSlice", "input": ["PartitionedCall/Shape_1", "PartitionedCall/strided_slice_4/stack", "PartitionedCall/strided_slice_4/stack_1", "PartitionedCall/strided_slice_4/stack_2"], "attr": {"shrink_axis_mask": {"i": "1"}, "new_axis_mask": {"i": "0"}, "Index": {"type": "DT_INT32"}, "begin_mask": {"i": "0"}, "end_mask": {"i": "0"}, "T": {"type": "DT_INT32"}, "ellipsis_mask": {"i": "0"}}}, {"name": "PartitionedCall/strided_slice_5", "op": "StridedSlice", "input": ["PartitionedCall/Shape_1", "PartitionedCall/strided_slice_5/stack", "PartitionedCall/strided_slice_5/stack_1", "PartitionedCall/strided_slice_5/stack_2"], "attr": {"shrink_axis_mask": {"i": "1"}, "Index": {"type": "DT_INT32"}, "new_axis_mask": {"i": "0"}, "begin_mask": {"i": "0"}, "end_mask": {"i": "0"}, "T": {"type": "DT_INT32"}, "ellipsis_mask": {"i": "0"}}}, {"name": "PartitionedCall/strided_slice_6", "op": "StridedSlice", "input": ["PartitionedCall/Shape_1", "PartitionedCall/strided_slice_6/stack", "PartitionedCall/strided_slice_6/stack_1", "PartitionedCall/strided_slice_6/stack_2"], "attr": {"shrink_axis_mask": {"i": "1"}, "new_axis_mask": {"i": "0"}, "Index": {"type": "DT_INT32"}, "begin_mask": {"i": "0"}, "end_mask": {"i": "0"}, "T": {"type": "DT_INT32"}, "ellipsis_mask": {"i": "0"}}}, {"name": "PartitionedCall/Slice/size", "op": "Pack", "input": ["PartitionedCall/strided_slice_3", "PartitionedCall/strided_slice_4", "PartitionedCall/strided_slice_5", "PartitionedCall/strided_slice_6"], "attr": {"N": {"i": "4"}, "axis": {"i": "0"}, "T": {"type": "DT_INT32"}}}, {"name": "PartitionedCall/Slice", "op": "Slice", "input": ["PartitionedCall/conv2d_transpose", "PartitionedCall/Slice/begin", "PartitionedCall/Slice/size"], "attr": {"T": {"type": "DT_FLOAT"}, "Index": {"type": "DT_INT32"}}}, {"name": "PartitionedCall/transpose_2", "op": "Transpose", "input": ["PartitionedCall/Slice", "PartitionedCall/transpose_2/perm"], "attr": {"Tperm": {"type": "DT_INT32"}, "_input_shapes": {"list": {"shape": [{"dim": [{"size": "-5"}, {"size": "-18"}, {"size": "-19"}, {"size": "-20"}]}, {"dim": [{"size": "4"}]}]}}, "T": {"type": "DT_FLOAT"}}}, {"name": "PartitionedCall/onnx_tf_prefix_/main/main.1/BatchNormalization/mul_1", "op": "Mul", "input": ["PartitionedCall/transpose_2", "PartitionedCall/onnx_tf_prefix_/main/main.1/BatchNormalization/mul"], "attr": {"T": {"type": "DT_FLOAT"}}}, {"name": "PartitionedCall/onnx_tf_prefix_/main/main.1/BatchNormalization/add_1", "op": "AddV2", "input": ["PartitionedCall/onnx_tf_prefix_/main/main.1/BatchNormalization/mul_1", "PartitionedCall/onnx_tf_prefix_/main/main.1/BatchNormalization/sub"], "attr": {"T": {"type": "DT_FLOAT"}}}, {"name": "PartitionedCall/onnx_tf_prefix_/main/main.2/Relu", "op": "Relu", "input": ["PartitionedCall/onnx_tf_prefix_/main/main.1/BatchNormalization/add_1"], "attr": {"T": {"type": "DT_FLOAT"}}}, {"name": "PartitionedCall/Shape_2", "op": "Shape", "input": ["PartitionedCall/onnx_tf_prefix_/main/main.2/Relu"], "attr": {"T": {"type": "DT_FLOAT"}, "out_type": {"type": "DT_INT32"}}, "experimentalType": {"typeId": "TFT_PRODUCT", "args": [{"typeId": "TFT_SHAPE_TENSOR", "args": [{"typeId": "TFT_INT32"}]}]}}, {"name": "PartitionedCall/transpose_4", "op": "Transpose", "input": ["PartitionedCall/onnx_tf_prefix_/main/main.2/Relu", "PartitionedCall/transpose_4/perm"], "attr": {"Tperm": {"type": "DT_INT32"}, "_input_shapes": {"list": {"shape": [{"dim": [{"size": "-5"}, {"size": "512"}, {"size": "-18"}, {"size": "-19"}]}, {"dim": [{"size": "4"}]}]}}, "T": {"type": "DT_FLOAT"}}}, {"name": "PartitionedCall/strided_slice_9", "op": "StridedSlice", "input": ["PartitionedCall/Shape_2", "PartitionedCall/strided_slice_9/stack", "PartitionedCall/strided_slice_9/stack_1", "PartitionedCall/strided_slice_9/stack_2"], "attr": {"shrink_axis_mask": {"i": "1"}, "new_axis_mask": {"i": "0"}, "Index": {"type": "DT_INT32"}, "begin_mask": {"i": "0"}, "T": {"type": "DT_INT32"}, "end_mask": {"i": "0"}, "ellipsis_mask": {"i": "0"}}}, {"name": "PartitionedCall/strided_slice_7", "op": "StridedSlice", "input": ["PartitionedCall/Shape_2", "PartitionedCall/strided_slice_7/stack", "PartitionedCall/strided_slice_7/stack_1", "PartitionedCall/strided_slice_7/stack_2"], "attr": {"shrink_axis_mask": {"i": "1"}, "new_axis_mask": {"i": "0"}, "Index": {"type": "DT_INT32"}, "begin_mask": {"i": "0"}, "end_mask": {"i": "0"}, "T": {"type": "DT_INT32"}, "ellipsis_mask": {"i": "0"}}}, {"name": "PartitionedCall/strided_slice_8", "op": "StridedSlice", "input": ["PartitionedCall/Shape_2", "PartitionedCall/strided_slice_8/stack", "PartitionedCall/strided_slice_8/stack_1", "PartitionedCall/strided_slice_8/stack_2"], "attr": {"shrink_axis_mask": {"i": "1"}, "Index": {"type": "DT_INT32"}, "new_axis_mask": {"i": "0"}, "begin_mask": {"i": "0"}, "end_mask": {"i": "0"}, "T": {"type": "DT_INT32"}, "ellipsis_mask": {"i": "0"}}}, {"name": "PartitionedCall/mul_2", "op": "Mul", "input": ["PartitionedCall/mul_2/x", "PartitionedCall/strided_slice_7"], "attr": {"T": {"type": "DT_INT32"}}}, {"name": "PartitionedCall/mul_3", "op": "Mul", "input": ["PartitionedCall/mul_3/x", "PartitionedCall/strided_slice_8"], "attr": {"T": {"type": "DT_INT32"}}}, {"name": "PartitionedCall/sub_6", "op": "Sub", "input": ["PartitionedCall/mul_2", "PartitionedCall/sub_6/y"], "attr": {"T": {"type": "DT_INT32"}}}, {"name": "PartitionedCall/sub_7", "op": "Sub", "input": ["PartitionedCall/mul_3", "PartitionedCall/sub_7/y"], "attr": {"T": {"type": "DT_INT32"}}}, {"name": "PartitionedCall/add_5", "op": "AddV2", "input": ["PartitionedCall/sub_6", "PartitionedCall/add_4"], "attr": {"T": {"type": "DT_INT32"}}}, {"name": "PartitionedCall/add_7", "op": "AddV2", "input": ["PartitionedCall/sub_7", "PartitionedCall/add_6"], "attr": {"T": {"type": "DT_INT32"}}}, {"name": "PartitionedCall/conv2d_transpose_1/input_sizes", "op": "Pack", "input": ["PartitionedCall/strided_slice_9", "PartitionedCall/add_5", "PartitionedCall/add_7", "PartitionedCall/conv2d_transpose_1/input_sizes/3"], "attr": {"N": {"i": "4"}, "axis": {"i": "0"}, "T": {"type": "DT_INT32"}}}, {"name": "PartitionedCall/conv2d_transpose_1", "op": "Conv2DBackpropInput", "input": ["PartitionedCall/conv2d_transpose_1/input_sizes", "PartitionedCall/split_1", "PartitionedCall/transpose_4"], "attr": {"padding": {"s": "VkFMSUQ="}, "data_format": {"s": "TkhXQw=="}, "use_cudnn_on_gpu": {"b": true}, "strides": {"list": {"i": ["1", "2", "2", "1"]}}, "T": {"type": "DT_FLOAT"}, "explicit_paddings": {"list": {}}, "dilations": {"list": {"i": ["1", "1", "1", "1"]}}}}, {"name": "PartitionedCall/Shape_3", "op": "Shape", "input": ["PartitionedCall/conv2d_transpose_1"], "attr": {"T": {"type": "DT_FLOAT"}, "out_type": {"type": "DT_INT32"}}, "experimentalType": {"typeId": "TFT_PRODUCT", "args": [{"typeId": "TFT_SHAPE_TENSOR", "args": [{"typeId": "TFT_INT32"}]}]}}, {"name": "PartitionedCall/strided_slice_10", "op": "StridedSlice", "input": ["PartitionedCall/Shape_3", "PartitionedCall/strided_slice_10/stack", "PartitionedCall/strided_slice_10/stack_1", "PartitionedCall/strided_slice_10/stack_2"], "attr": {"shrink_axis_mask": {"i": "1"}, "Index": {"type": "DT_INT32"}, "new_axis_mask": {"i": "0"}, "begin_mask": {"i": "0"}, "T": {"type": "DT_INT32"}, "end_mask": {"i": "0"}, "ellipsis_mask": {"i": "0"}}}, {"name": "PartitionedCall/strided_slice_11", "op": "StridedSlice", "input": ["PartitionedCall/Shape_3", "PartitionedCall/strided_slice_11/stack", "PartitionedCall/strided_slice_11/stack_1", "PartitionedCall/strided_slice_11/stack_2"], "attr": {"shrink_axis_mask": {"i": "1"}, "new_axis_mask": {"i": "0"}, "Index": {"type": "DT_INT32"}, "begin_mask": {"i": "0"}, "T": {"type": "DT_INT32"}, "end_mask": {"i": "0"}, "ellipsis_mask": {"i": "0"}}}, {"name": "PartitionedCall/strided_slice_12", "op": "StridedSlice", "input": ["PartitionedCall/Shape_3", "PartitionedCall/strided_slice_12/stack", "PartitionedCall/strided_slice_12/stack_1", "PartitionedCall/strided_slice_12/stack_2"], "attr": {"shrink_axis_mask": {"i": "1"}, "new_axis_mask": {"i": "0"}, "Index": {"type": "DT_INT32"}, "begin_mask": {"i": "0"}, "T": {"type": "DT_INT32"}, "end_mask": {"i": "0"}, "ellipsis_mask": {"i": "0"}}}, {"name": "PartitionedCall/strided_slice_13", "op": "StridedSlice", "input": ["PartitionedCall/Shape_3", "PartitionedCall/strided_slice_13/stack", "PartitionedCall/strided_slice_13/stack_1", "PartitionedCall/strided_slice_13/stack_2"], "attr": {"shrink_axis_mask": {"i": "1"}, "new_axis_mask": {"i": "0"}, "Index": {"type": "DT_INT32"}, "begin_mask": {"i": "0"}, "end_mask": {"i": "0"}, "T": {"type": "DT_INT32"}, "ellipsis_mask": {"i": "0"}}}, {"name": "PartitionedCall/sub_8", "op": "Sub", "input": ["PartitionedCall/strided_slice_11", "PartitionedCall/sub_8/y"], "attr": {"T": {"type": "DT_INT32"}}}, {"name": "PartitionedCall/sub_10", "op": "Sub", "input": ["PartitionedCall/strided_slice_12", "PartitionedCall/sub_10/y"], "attr": {"T": {"type": "DT_INT32"}}}, {"name": "PartitionedCall/sub_9", "op": "Sub", "input": ["PartitionedCall/sub_8", "PartitionedCall/sub_9/y"], "attr": {"T": {"type": "DT_INT32"}}}, {"name": "PartitionedCall/sub_11", "op": "Sub", "input": ["PartitionedCall/sub_10", "PartitionedCall/sub_11/y"], "attr": {"T": {"type": "DT_INT32"}}}, {"name": "PartitionedCall/Slice_1/size", "op": "Pack", "input": ["PartitionedCall/strided_slice_10", "PartitionedCall/sub_9", "PartitionedCall/sub_11", "PartitionedCall/strided_slice_13"], "attr": {"N": {"i": "4"}, "axis": {"i": "0"}, "T": {"type": "DT_INT32"}}}, {"name": "PartitionedCall/Slice_1", "op": "Slice", "input": ["PartitionedCall/conv2d_transpose_1", "PartitionedCall/Slice_1/begin", "PartitionedCall/Slice_1/size"], "attr": {"T": {"type": "DT_FLOAT"}, "Index": {"type": "DT_INT32"}}}, {"name": "PartitionedCall/transpose_5", "op": "Transpose", "input": ["PartitionedCall/Slice_1", "PartitionedCall/transpose_5/perm"], "attr": {"Tperm": {"type": "DT_INT32"}, "_input_shapes": {"list": {"shape": [{"dim": [{"size": "-7"}, {"size": "-23"}, {"size": "-24"}, {"size": "-25"}]}, {"dim": [{"size": "4"}]}]}}, "T": {"type": "DT_FLOAT"}}}, {"name": "PartitionedCall/onnx_tf_prefix_/main/main.4/BatchNormalization/mul_1", "op": "Mul", "input": ["PartitionedCall/transpose_5", "PartitionedCall/onnx_tf_prefix_/main/main.4/BatchNormalization/mul"], "attr": {"T": {"type": "DT_FLOAT"}}}, {"name": "PartitionedCall/onnx_tf_prefix_/main/main.4/BatchNormalization/add_1", "op": "AddV2", "input": ["PartitionedCall/onnx_tf_prefix_/main/main.4/BatchNormalization/mul_1", "PartitionedCall/onnx_tf_prefix_/main/main.4/BatchNormalization/sub"], "attr": {"T": {"type": "DT_FLOAT"}}}, {"name": "PartitionedCall/onnx_tf_prefix_/main/main.5/Relu", "op": "Relu", "input": ["PartitionedCall/onnx_tf_prefix_/main/main.4/BatchNormalization/add_1"], "attr": {"T": {"type": "DT_FLOAT"}}}, {"name": "PartitionedCall/Shape_4", "op": "Shape", "input": ["PartitionedCall/onnx_tf_prefix_/main/main.5/Relu"], "attr": {"T": {"type": "DT_FLOAT"}, "out_type": {"type": "DT_INT32"}}, "experimentalType": {"typeId": "TFT_PRODUCT", "args": [{"typeId": "TFT_SHAPE_TENSOR", "args": [{"typeId": "TFT_INT32"}]}]}}, {"name": "PartitionedCall/transpose_7", "op": "Transpose", "input": ["PartitionedCall/onnx_tf_prefix_/main/main.5/Relu", "PartitionedCall/transpose_7/perm"], "attr": {"Tperm": {"type": "DT_INT32"}, "_input_shapes": {"list": {"shape": [{"dim": [{"size": "-7"}, {"size": "256"}, {"size": "-23"}, {"size": "-24"}]}, {"dim": [{"size": "4"}]}]}}, "T": {"type": "DT_FLOAT"}}}, {"name": "PartitionedCall/strided_slice_16", "op": "StridedSlice", "input": ["PartitionedCall/Shape_4", "PartitionedCall/strided_slice_16/stack", "PartitionedCall/strided_slice_16/stack_1", "PartitionedCall/strided_slice_16/stack_2"], "attr": {"shrink_axis_mask": {"i": "1"}, "Index": {"type": "DT_INT32"}, "new_axis_mask": {"i": "0"}, "begin_mask": {"i": "0"}, "T": {"type": "DT_INT32"}, "end_mask": {"i": "0"}, "ellipsis_mask": {"i": "0"}}}, {"name": "PartitionedCall/strided_slice_14", "op": "StridedSlice", "input": ["PartitionedCall/Shape_4", "PartitionedCall/strided_slice_14/stack", "PartitionedCall/strided_slice_14/stack_1", "PartitionedCall/strided_slice_14/stack_2"], "attr": {"shrink_axis_mask": {"i": "1"}, "new_axis_mask": {"i": "0"}, "Index": {"type": "DT_INT32"}, "begin_mask": {"i": "0"}, "end_mask": {"i": "0"}, "T": {"type": "DT_INT32"}, "ellipsis_mask": {"i": "0"}}}, {"name": "PartitionedCall/strided_slice_15", "op": "StridedSlice", "input": ["PartitionedCall/Shape_4", "PartitionedCall/strided_slice_15/stack", "PartitionedCall/strided_slice_15/stack_1", "PartitionedCall/strided_slice_15/stack_2"], "attr": {"shrink_axis_mask": {"i": "1"}, "new_axis_mask": {"i": "0"}, "Index": {"type": "DT_INT32"}, "begin_mask": {"i": "0"}, "end_mask": {"i": "0"}, "T": {"type": "DT_INT32"}, "ellipsis_mask": {"i": "0"}}}, {"name": "PartitionedCall/mul_4", "op": "Mul", "input": ["PartitionedCall/mul_4/x", "PartitionedCall/strided_slice_14"], "attr": {"T": {"type": "DT_INT32"}}}, {"name": "PartitionedCall/mul_5", "op": "Mul", "input": ["PartitionedCall/mul_5/x", "PartitionedCall/strided_slice_15"], "attr": {"T": {"type": "DT_INT32"}}}, {"name": "PartitionedCall/sub_12", "op": "Sub", "input": ["PartitionedCall/mul_4", "PartitionedCall/sub_12/y"], "attr": {"T": {"type": "DT_INT32"}}}, {"name": "PartitionedCall/sub_13", "op": "Sub", "input": ["PartitionedCall/mul_5", "PartitionedCall/sub_13/y"], "attr": {"T": {"type": "DT_INT32"}}}, {"name": "PartitionedCall/add_9", "op": "AddV2", "input": ["PartitionedCall/sub_12", "PartitionedCall/add_8"], "attr": {"T": {"type": "DT_INT32"}}}, {"name": "PartitionedCall/add_11", "op": "AddV2", "input": ["PartitionedCall/sub_13", "PartitionedCall/add_10"], "attr": {"T": {"type": "DT_INT32"}}}, {"name": "PartitionedCall/conv2d_transpose_2/input_sizes", "op": "Pack", "input": ["PartitionedCall/strided_slice_16", "PartitionedCall/add_9", "PartitionedCall/add_11", "PartitionedCall/conv2d_transpose_2/input_sizes/3"], "attr": {"N": {"i": "4"}, "axis": {"i": "0"}, "T": {"type": "DT_INT32"}}}, {"name": "PartitionedCall/conv2d_transpose_2", "op": "Conv2DBackpropInput", "input": ["PartitionedCall/conv2d_transpose_2/input_sizes", "PartitionedCall/split_2", "PartitionedCall/transpose_7"], "attr": {"padding": {"s": "VkFMSUQ="}, "data_format": {"s": "TkhXQw=="}, "strides": {"list": {"i": ["1", "2", "2", "1"]}}, "use_cudnn_on_gpu": {"b": true}, "T": {"type": "DT_FLOAT"}, "explicit_paddings": {"list": {}}, "dilations": {"list": {"i": ["1", "1", "1", "1"]}}}}, {"name": "PartitionedCall/Shape_5", "op": "Shape", "input": ["PartitionedCall/conv2d_transpose_2"], "attr": {"T": {"type": "DT_FLOAT"}, "out_type": {"type": "DT_INT32"}}, "experimentalType": {"typeId": "TFT_PRODUCT", "args": [{"typeId": "TFT_SHAPE_TENSOR", "args": [{"typeId": "TFT_INT32"}]}]}}, {"name": "PartitionedCall/strided_slice_17", "op": "StridedSlice", "input": ["PartitionedCall/Shape_5", "PartitionedCall/strided_slice_17/stack", "PartitionedCall/strided_slice_17/stack_1", "PartitionedCall/strided_slice_17/stack_2"], "attr": {"shrink_axis_mask": {"i": "1"}, "Index": {"type": "DT_INT32"}, "new_axis_mask": {"i": "0"}, "begin_mask": {"i": "0"}, "T": {"type": "DT_INT32"}, "end_mask": {"i": "0"}, "ellipsis_mask": {"i": "0"}}}, {"name": "PartitionedCall/strided_slice_18", "op": "StridedSlice", "input": ["PartitionedCall/Shape_5", "PartitionedCall/strided_slice_18/stack", "PartitionedCall/strided_slice_18/stack_1", "PartitionedCall/strided_slice_18/stack_2"], "attr": {"shrink_axis_mask": {"i": "1"}, "Index": {"type": "DT_INT32"}, "new_axis_mask": {"i": "0"}, "begin_mask": {"i": "0"}, "T": {"type": "DT_INT32"}, "end_mask": {"i": "0"}, "ellipsis_mask": {"i": "0"}}}, {"name": "PartitionedCall/strided_slice_19", "op": "StridedSlice", "input": ["PartitionedCall/Shape_5", "PartitionedCall/strided_slice_19/stack", "PartitionedCall/strided_slice_19/stack_1", "PartitionedCall/strided_slice_19/stack_2"], "attr": {"shrink_axis_mask": {"i": "1"}, "Index": {"type": "DT_INT32"}, "new_axis_mask": {"i": "0"}, "begin_mask": {"i": "0"}, "T": {"type": "DT_INT32"}, "end_mask": {"i": "0"}, "ellipsis_mask": {"i": "0"}}}, {"name": "PartitionedCall/strided_slice_20", "op": "StridedSlice", "input": ["PartitionedCall/Shape_5", "PartitionedCall/strided_slice_20/stack", "PartitionedCall/strided_slice_20/stack_1", "PartitionedCall/strided_slice_20/stack_2"], "attr": {"shrink_axis_mask": {"i": "1"}, "Index": {"type": "DT_INT32"}, "new_axis_mask": {"i": "0"}, "begin_mask": {"i": "0"}, "T": {"type": "DT_INT32"}, "end_mask": {"i": "0"}, "ellipsis_mask": {"i": "0"}}}, {"name": "PartitionedCall/sub_14", "op": "Sub", "input": ["PartitionedCall/strided_slice_18", "PartitionedCall/sub_14/y"], "attr": {"T": {"type": "DT_INT32"}}}, {"name": "PartitionedCall/sub_16", "op": "Sub", "input": ["PartitionedCall/strided_slice_19", "PartitionedCall/sub_16/y"], "attr": {"T": {"type": "DT_INT32"}}}, {"name": "PartitionedCall/sub_15", "op": "Sub", "input": ["PartitionedCall/sub_14", "PartitionedCall/sub_15/y"], "attr": {"T": {"type": "DT_INT32"}}}, {"name": "PartitionedCall/sub_17", "op": "Sub", "input": ["PartitionedCall/sub_16", "PartitionedCall/sub_17/y"], "attr": {"T": {"type": "DT_INT32"}}}, {"name": "PartitionedCall/Slice_2/size", "op": "Pack", "input": ["PartitionedCall/strided_slice_17", "PartitionedCall/sub_15", "PartitionedCall/sub_17", "PartitionedCall/strided_slice_20"], "attr": {"N": {"i": "4"}, "axis": {"i": "0"}, "T": {"type": "DT_INT32"}}}, {"name": "PartitionedCall/Slice_2", "op": "Slice", "input": ["PartitionedCall/conv2d_transpose_2", "PartitionedCall/Slice_2/begin", "PartitionedCall/Slice_2/size"], "attr": {"T": {"type": "DT_FLOAT"}, "Index": {"type": "DT_INT32"}}}, {"name": "PartitionedCall/transpose_8", "op": "Transpose", "input": ["PartitionedCall/Slice_2", "PartitionedCall/transpose_8/perm"], "attr": {"Tperm": {"type": "DT_INT32"}, "_input_shapes": {"list": {"shape": [{"dim": [{"size": "-9"}, {"size": "-28"}, {"size": "-29"}, {"size": "-30"}]}, {"dim": [{"size": "4"}]}]}}, "T": {"type": "DT_FLOAT"}}}, {"name": "PartitionedCall/onnx_tf_prefix_/main/main.7/BatchNormalization/mul_1", "op": "Mul", "input": ["PartitionedCall/transpose_8", "PartitionedCall/onnx_tf_prefix_/main/main.7/BatchNormalization/mul"], "attr": {"T": {"type": "DT_FLOAT"}}}, {"name": "PartitionedCall/onnx_tf_prefix_/main/main.7/BatchNormalization/add_1", "op": "AddV2", "input": ["PartitionedCall/onnx_tf_prefix_/main/main.7/BatchNormalization/mul_1", "PartitionedCall/onnx_tf_prefix_/main/main.7/BatchNormalization/sub"], "attr": {"T": {"type": "DT_FLOAT"}}}, {"name": "PartitionedCall/onnx_tf_prefix_/main/main.8/Relu", "op": "Relu", "input": ["PartitionedCall/onnx_tf_prefix_/main/main.7/BatchNormalization/add_1"], "attr": {"T": {"type": "DT_FLOAT"}}}, {"name": "PartitionedCall/Shape_6", "op": "Shape", "input": ["PartitionedCall/onnx_tf_prefix_/main/main.8/Relu"], "attr": {"T": {"type": "DT_FLOAT"}, "out_type": {"type": "DT_INT32"}}, "experimentalType": {"typeId": "TFT_PRODUCT", "args": [{"typeId": "TFT_SHAPE_TENSOR", "args": [{"typeId": "TFT_INT32"}]}]}}, {"name": "PartitionedCall/transpose_10", "op": "Transpose", "input": ["PartitionedCall/onnx_tf_prefix_/main/main.8/Relu", "PartitionedCall/transpose_10/perm"], "attr": {"Tperm": {"type": "DT_INT32"}, "_input_shapes": {"list": {"shape": [{"dim": [{"size": "-9"}, {"size": "128"}, {"size": "-28"}, {"size": "-29"}]}, {"dim": [{"size": "4"}]}]}}, "T": {"type": "DT_FLOAT"}}}, {"name": "PartitionedCall/strided_slice_23", "op": "StridedSlice", "input": ["PartitionedCall/Shape_6", "PartitionedCall/strided_slice_23/stack", "PartitionedCall/strided_slice_23/stack_1", "PartitionedCall/strided_slice_23/stack_2"], "attr": {"shrink_axis_mask": {"i": "1"}, "new_axis_mask": {"i": "0"}, "Index": {"type": "DT_INT32"}, "begin_mask": {"i": "0"}, "end_mask": {"i": "0"}, "T": {"type": "DT_INT32"}, "ellipsis_mask": {"i": "0"}}}, {"name": "PartitionedCall/strided_slice_21", "op": "StridedSlice", "input": ["PartitionedCall/Shape_6", "PartitionedCall/strided_slice_21/stack", "PartitionedCall/strided_slice_21/stack_1", "PartitionedCall/strided_slice_21/stack_2"], "attr": {"shrink_axis_mask": {"i": "1"}, "Index": {"type": "DT_INT32"}, "new_axis_mask": {"i": "0"}, "begin_mask": {"i": "0"}, "end_mask": {"i": "0"}, "T": {"type": "DT_INT32"}, "ellipsis_mask": {"i": "0"}}}, {"name": "PartitionedCall/strided_slice_22", "op": "StridedSlice", "input": ["PartitionedCall/Shape_6", "PartitionedCall/strided_slice_22/stack", "PartitionedCall/strided_slice_22/stack_1", "PartitionedCall/strided_slice_22/stack_2"], "attr": {"shrink_axis_mask": {"i": "1"}, "Index": {"type": "DT_INT32"}, "new_axis_mask": {"i": "0"}, "begin_mask": {"i": "0"}, "end_mask": {"i": "0"}, "T": {"type": "DT_INT32"}, "ellipsis_mask": {"i": "0"}}}, {"name": "PartitionedCall/mul_6", "op": "Mul", "input": ["PartitionedCall/mul_6/x", "PartitionedCall/strided_slice_21"], "attr": {"T": {"type": "DT_INT32"}}}, {"name": "PartitionedCall/mul_7", "op": "Mul", "input": ["PartitionedCall/mul_7/x", "PartitionedCall/strided_slice_22"], "attr": {"T": {"type": "DT_INT32"}}}, {"name": "PartitionedCall/sub_18", "op": "Sub", "input": ["PartitionedCall/mul_6", "PartitionedCall/sub_18/y"], "attr": {"T": {"type": "DT_INT32"}}}, {"name": "PartitionedCall/sub_19", "op": "Sub", "input": ["PartitionedCall/mul_7", "PartitionedCall/sub_19/y"], "attr": {"T": {"type": "DT_INT32"}}}, {"name": "PartitionedCall/add_13", "op": "AddV2", "input": ["PartitionedCall/sub_18", "PartitionedCall/add_12"], "attr": {"T": {"type": "DT_INT32"}}}, {"name": "PartitionedCall/add_15", "op": "AddV2", "input": ["PartitionedCall/sub_19", "PartitionedCall/add_14"], "attr": {"T": {"type": "DT_INT32"}}}, {"name": "PartitionedCall/conv2d_transpose_3/input_sizes", "op": "Pack", "input": ["PartitionedCall/strided_slice_23", "PartitionedCall/add_13", "PartitionedCall/add_15", "PartitionedCall/conv2d_transpose_3/input_sizes/3"], "attr": {"N": {"i": "4"}, "axis": {"i": "0"}, "T": {"type": "DT_INT32"}}}, {"name": "PartitionedCall/conv2d_transpose_3", "op": "Conv2DBackpropInput", "input": ["PartitionedCall/conv2d_transpose_3/input_sizes", "PartitionedCall/split_3", "PartitionedCall/transpose_10"], "attr": {"padding": {"s": "VkFMSUQ="}, "data_format": {"s": "TkhXQw=="}, "strides": {"list": {"i": ["1", "2", "2", "1"]}}, "use_cudnn_on_gpu": {"b": true}, "T": {"type": "DT_FLOAT"}, "explicit_paddings": {"list": {}}, "dilations": {"list": {"i": ["1", "1", "1", "1"]}}}}, {"name": "PartitionedCall/Shape_7", "op": "Shape", "input": ["PartitionedCall/conv2d_transpose_3"], "attr": {"T": {"type": "DT_FLOAT"}, "out_type": {"type": "DT_INT32"}}, "experimentalType": {"typeId": "TFT_PRODUCT", "args": [{"typeId": "TFT_SHAPE_TENSOR", "args": [{"typeId": "TFT_INT32"}]}]}}, {"name": "PartitionedCall/strided_slice_24", "op": "StridedSlice", "input": ["PartitionedCall/Shape_7", "PartitionedCall/strided_slice_24/stack", "PartitionedCall/strided_slice_24/stack_1", "PartitionedCall/strided_slice_24/stack_2"], "attr": {"shrink_axis_mask": {"i": "1"}, "Index": {"type": "DT_INT32"}, "new_axis_mask": {"i": "0"}, "begin_mask": {"i": "0"}, "T": {"type": "DT_INT32"}, "end_mask": {"i": "0"}, "ellipsis_mask": {"i": "0"}}}, {"name": "PartitionedCall/strided_slice_25", "op": "StridedSlice", "input": ["PartitionedCall/Shape_7", "PartitionedCall/strided_slice_25/stack", "PartitionedCall/strided_slice_25/stack_1", "PartitionedCall/strided_slice_25/stack_2"], "attr": {"shrink_axis_mask": {"i": "1"}, "new_axis_mask": {"i": "0"}, "Index": {"type": "DT_INT32"}, "begin_mask": {"i": "0"}, "end_mask": {"i": "0"}, "T": {"type": "DT_INT32"}, "ellipsis_mask": {"i": "0"}}}, {"name": "PartitionedCall/strided_slice_26", "op": "StridedSlice", "input": ["PartitionedCall/Shape_7", "PartitionedCall/strided_slice_26/stack", "PartitionedCall/strided_slice_26/stack_1", "PartitionedCall/strided_slice_26/stack_2"], "attr": {"shrink_axis_mask": {"i": "1"}, "new_axis_mask": {"i": "0"}, "Index": {"type": "DT_INT32"}, "begin_mask": {"i": "0"}, "end_mask": {"i": "0"}, "T": {"type": "DT_INT32"}, "ellipsis_mask": {"i": "0"}}}, {"name": "PartitionedCall/strided_slice_27", "op": "StridedSlice", "input": ["PartitionedCall/Shape_7", "PartitionedCall/strided_slice_27/stack", "PartitionedCall/strided_slice_27/stack_1", "PartitionedCall/strided_slice_27/stack_2"], "attr": {"shrink_axis_mask": {"i": "1"}, "new_axis_mask": {"i": "0"}, "Index": {"type": "DT_INT32"}, "begin_mask": {"i": "0"}, "T": {"type": "DT_INT32"}, "end_mask": {"i": "0"}, "ellipsis_mask": {"i": "0"}}}, {"name": "PartitionedCall/sub_20", "op": "Sub", "input": ["PartitionedCall/strided_slice_25", "PartitionedCall/sub_20/y"], "attr": {"T": {"type": "DT_INT32"}}}, {"name": "PartitionedCall/sub_22", "op": "Sub", "input": ["PartitionedCall/strided_slice_26", "PartitionedCall/sub_22/y"], "attr": {"T": {"type": "DT_INT32"}}}, {"name": "PartitionedCall/sub_21", "op": "Sub", "input": ["PartitionedCall/sub_20", "PartitionedCall/sub_21/y"], "attr": {"T": {"type": "DT_INT32"}}}, {"name": "PartitionedCall/sub_23", "op": "Sub", "input": ["PartitionedCall/sub_22", "PartitionedCall/sub_23/y"], "attr": {"T": {"type": "DT_INT32"}}}, {"name": "PartitionedCall/Slice_3/size", "op": "Pack", "input": ["PartitionedCall/strided_slice_24", "PartitionedCall/sub_21", "PartitionedCall/sub_23", "PartitionedCall/strided_slice_27"], "attr": {"N": {"i": "4"}, "axis": {"i": "0"}, "T": {"type": "DT_INT32"}}}, {"name": "PartitionedCall/Slice_3", "op": "Slice", "input": ["PartitionedCall/conv2d_transpose_3", "PartitionedCall/Slice_3/begin", "PartitionedCall/Slice_3/size"], "attr": {"T": {"type": "DT_FLOAT"}, "Index": {"type": "DT_INT32"}}}, {"name": "PartitionedCall/transpose_11", "op": "Transpose", "input": ["PartitionedCall/Slice_3", "PartitionedCall/transpose_11/perm"], "attr": {"Tperm": {"type": "DT_INT32"}, "_input_shapes": {"list": {"shape": [{"dim": [{"size": "-11"}, {"size": "-33"}, {"size": "-34"}, {"size": "-35"}]}, {"dim": [{"size": "4"}]}]}}, "T": {"type": "DT_FLOAT"}}}, {"name": "PartitionedCall/onnx_tf_prefix_/main/main.10/BatchNormalization/mul_1", "op": "Mul", "input": ["PartitionedCall/transpose_11", "PartitionedCall/onnx_tf_prefix_/main/main.10/BatchNormalization/mul"], "attr": {"T": {"type": "DT_FLOAT"}}}, {"name": "PartitionedCall/onnx_tf_prefix_/main/main.10/BatchNormalization/add_1", "op": "AddV2", "input": ["PartitionedCall/onnx_tf_prefix_/main/main.10/BatchNormalization/mul_1", "PartitionedCall/onnx_tf_prefix_/main/main.10/BatchNormalization/sub"], "attr": {"T": {"type": "DT_FLOAT"}}}, {"name": "PartitionedCall/onnx_tf_prefix_/main/main.11/Relu", "op": "Relu", "input": ["PartitionedCall/onnx_tf_prefix_/main/main.10/BatchNormalization/add_1"], "attr": {"T": {"type": "DT_FLOAT"}}}, {"name": "PartitionedCall/Shape_8", "op": "Shape", "input": ["PartitionedCall/onnx_tf_prefix_/main/main.11/Relu"], "attr": {"T": {"type": "DT_FLOAT"}, "out_type": {"type": "DT_INT32"}}, "experimentalType": {"typeId": "TFT_PRODUCT", "args": [{"typeId": "TFT_SHAPE_TENSOR", "args": [{"typeId": "TFT_INT32"}]}]}}, {"name": "PartitionedCall/transpose_13", "op": "Transpose", "input": ["PartitionedCall/onnx_tf_prefix_/main/main.11/Relu", "PartitionedCall/transpose_13/perm"], "attr": {"Tperm": {"type": "DT_INT32"}, "_input_shapes": {"list": {"shape": [{"dim": [{"size": "-11"}, {"size": "64"}, {"size": "-33"}, {"size": "-34"}]}, {"dim": [{"size": "4"}]}]}}, "T": {"type": "DT_FLOAT"}}}, {"name": "PartitionedCall/strided_slice_30", "op": "StridedSlice", "input": ["PartitionedCall/Shape_8", "PartitionedCall/strided_slice_30/stack", "PartitionedCall/strided_slice_30/stack_1", "PartitionedCall/strided_slice_30/stack_2"], "attr": {"shrink_axis_mask": {"i": "1"}, "new_axis_mask": {"i": "0"}, "Index": {"type": "DT_INT32"}, "begin_mask": {"i": "0"}, "T": {"type": "DT_INT32"}, "end_mask": {"i": "0"}, "ellipsis_mask": {"i": "0"}}}, {"name": "PartitionedCall/strided_slice_28", "op": "StridedSlice", "input": ["PartitionedCall/Shape_8", "PartitionedCall/strided_slice_28/stack", "PartitionedCall/strided_slice_28/stack_1", "PartitionedCall/strided_slice_28/stack_2"], "attr": {"shrink_axis_mask": {"i": "1"}, "Index": {"type": "DT_INT32"}, "new_axis_mask": {"i": "0"}, "begin_mask": {"i": "0"}, "T": {"type": "DT_INT32"}, "end_mask": {"i": "0"}, "ellipsis_mask": {"i": "0"}}}, {"name": "PartitionedCall/strided_slice_29", "op": "StridedSlice", "input": ["PartitionedCall/Shape_8", "PartitionedCall/strided_slice_29/stack", "PartitionedCall/strided_slice_29/stack_1", "PartitionedCall/strided_slice_29/stack_2"], "attr": {"shrink_axis_mask": {"i": "1"}, "new_axis_mask": {"i": "0"}, "Index": {"type": "DT_INT32"}, "begin_mask": {"i": "0"}, "end_mask": {"i": "0"}, "T": {"type": "DT_INT32"}, "ellipsis_mask": {"i": "0"}}}, {"name": "PartitionedCall/mul_8", "op": "Mul", "input": ["PartitionedCall/mul_8/x", "PartitionedCall/strided_slice_28"], "attr": {"T": {"type": "DT_INT32"}}}, {"name": "PartitionedCall/mul_9", "op": "Mul", "input": ["PartitionedCall/mul_9/x", "PartitionedCall/strided_slice_29"], "attr": {"T": {"type": "DT_INT32"}}}, {"name": "PartitionedCall/sub_24", "op": "Sub", "input": ["PartitionedCall/mul_8", "PartitionedCall/sub_24/y"], "attr": {"T": {"type": "DT_INT32"}}}, {"name": "PartitionedCall/sub_25", "op": "Sub", "input": ["PartitionedCall/mul_9", "PartitionedCall/sub_25/y"], "attr": {"T": {"type": "DT_INT32"}}}, {"name": "PartitionedCall/add_17", "op": "AddV2", "input": ["PartitionedCall/sub_24", "PartitionedCall/add_16"], "attr": {"T": {"type": "DT_INT32"}}}, {"name": "PartitionedCall/add_19", "op": "AddV2", "input": ["PartitionedCall/sub_25", "PartitionedCall/add_18"], "attr": {"T": {"type": "DT_INT32"}}}, {"name": "PartitionedCall/conv2d_transpose_4/input_sizes", "op": "Pack", "input": ["PartitionedCall/strided_slice_30", "PartitionedCall/add_17", "PartitionedCall/add_19", "PartitionedCall/conv2d_transpose_4/input_sizes/3"], "attr": {"N": {"i": "4"}, "axis": {"i": "0"}, "T": {"type": "DT_INT32"}}}, {"name": "PartitionedCall/conv2d_transpose_4", "op": "Conv2DBackpropInput", "input": ["PartitionedCall/conv2d_transpose_4/input_sizes", "PartitionedCall/split_4", "PartitionedCall/transpose_13"], "attr": {"padding": {"s": "VkFMSUQ="}, "data_format": {"s": "TkhXQw=="}, "strides": {"list": {"i": ["1", "2", "2", "1"]}}, "use_cudnn_on_gpu": {"b": true}, "T": {"type": "DT_FLOAT"}, "explicit_paddings": {"list": {}}, "dilations": {"list": {"i": ["1", "1", "1", "1"]}}}}, {"name": "PartitionedCall/Shape_9", "op": "Shape", "input": ["PartitionedCall/conv2d_transpose_4"], "attr": {"T": {"type": "DT_FLOAT"}, "out_type": {"type": "DT_INT32"}}, "experimentalType": {"typeId": "TFT_PRODUCT", "args": [{"typeId": "TFT_SHAPE_TENSOR", "args": [{"typeId": "TFT_INT32"}]}]}}, {"name": "PartitionedCall/strided_slice_31", "op": "StridedSlice", "input": ["PartitionedCall/Shape_9", "PartitionedCall/strided_slice_31/stack", "PartitionedCall/strided_slice_31/stack_1", "PartitionedCall/strided_slice_31/stack_2"], "attr": {"shrink_axis_mask": {"i": "1"}, "new_axis_mask": {"i": "0"}, "Index": {"type": "DT_INT32"}, "begin_mask": {"i": "0"}, "end_mask": {"i": "0"}, "T": {"type": "DT_INT32"}, "ellipsis_mask": {"i": "0"}}}, {"name": "PartitionedCall/strided_slice_32", "op": "StridedSlice", "input": ["PartitionedCall/Shape_9", "PartitionedCall/strided_slice_32/stack", "PartitionedCall/strided_slice_32/stack_1", "PartitionedCall/strided_slice_32/stack_2"], "attr": {"shrink_axis_mask": {"i": "1"}, "Index": {"type": "DT_INT32"}, "new_axis_mask": {"i": "0"}, "begin_mask": {"i": "0"}, "end_mask": {"i": "0"}, "T": {"type": "DT_INT32"}, "ellipsis_mask": {"i": "0"}}}, {"name": "PartitionedCall/strided_slice_33", "op": "StridedSlice", "input": ["PartitionedCall/Shape_9", "PartitionedCall/strided_slice_33/stack", "PartitionedCall/strided_slice_33/stack_1", "PartitionedCall/strided_slice_33/stack_2"], "attr": {"shrink_axis_mask": {"i": "1"}, "Index": {"type": "DT_INT32"}, "new_axis_mask": {"i": "0"}, "begin_mask": {"i": "0"}, "T": {"type": "DT_INT32"}, "end_mask": {"i": "0"}, "ellipsis_mask": {"i": "0"}}}, {"name": "PartitionedCall/strided_slice_34", "op": "StridedSlice", "input": ["PartitionedCall/Shape_9", "PartitionedCall/strided_slice_34/stack", "PartitionedCall/strided_slice_34/stack_1", "PartitionedCall/strided_slice_34/stack_2"], "attr": {"shrink_axis_mask": {"i": "1"}, "new_axis_mask": {"i": "0"}, "Index": {"type": "DT_INT32"}, "begin_mask": {"i": "0"}, "T": {"type": "DT_INT32"}, "end_mask": {"i": "0"}, "ellipsis_mask": {"i": "0"}}}, {"name": "PartitionedCall/sub_26", "op": "Sub", "input": ["PartitionedCall/strided_slice_32", "PartitionedCall/sub_26/y"], "attr": {"T": {"type": "DT_INT32"}}}, {"name": "PartitionedCall/sub_28", "op": "Sub", "input": ["PartitionedCall/strided_slice_33", "PartitionedCall/sub_28/y"], "attr": {"T": {"type": "DT_INT32"}}}, {"name": "PartitionedCall/sub_27", "op": "Sub", "input": ["PartitionedCall/sub_26", "PartitionedCall/sub_27/y"], "attr": {"T": {"type": "DT_INT32"}}}, {"name": "PartitionedCall/sub_29", "op": "Sub", "input": ["PartitionedCall/sub_28", "PartitionedCall/sub_29/y"], "attr": {"T": {"type": "DT_INT32"}}}, {"name": "PartitionedCall/Slice_4/size", "op": "Pack", "input": ["PartitionedCall/strided_slice_31", "PartitionedCall/sub_27", "PartitionedCall/sub_29", "PartitionedCall/strided_slice_34"], "attr": {"N": {"i": "4"}, "axis": {"i": "0"}, "T": {"type": "DT_INT32"}}}, {"name": "PartitionedCall/Slice_4", "op": "Slice", "input": ["PartitionedCall/conv2d_transpose_4", "PartitionedCall/Slice_4/begin", "PartitionedCall/Slice_4/size"], "attr": {"T": {"type": "DT_FLOAT"}, "Index": {"type": "DT_INT32"}}}, {"name": "PartitionedCall/transpose_14", "op": "Transpose", "input": ["PartitionedCall/Slice_4", "PartitionedCall/transpose_14/perm"], "attr": {"Tperm": {"type": "DT_INT32"}, "_input_shapes": {"list": {"shape": [{"dim": [{"size": "-38"}, {"size": "-39"}, {"size": "-40"}, {"size": "-41"}]}, {"dim": [{"size": "4"}]}]}}, "T": {"type": "DT_FLOAT"}}}, {"name": "PartitionedCall/onnx_tf_prefix_/main/main.13/Tanh", "op": "Tanh", "input": ["PartitionedCall/transpose_14"], "attr": {"T": {"type": "DT_FLOAT"}}}, {"name": "Identity", "op": "Identity", "input": ["PartitionedCall/onnx_tf_prefix_/main/main.13/Tanh"], "attr": {"T": {"type": "DT_FLOAT"}}}], "library": {}, "versions": {"producer": 2129}}, "weightsManifest": [{"paths": ["group1-shard1of4.bin", "group1-shard2of4.bin", "group1-shard3of4.bin", "group1-shard4of4.bin"], "weights": [{"name": "PartitionedCall/Slice_4/begin", "shape": [4], "dtype": "int32"}, {"name": "PartitionedCall/strided_slice_31/stack", "shape": [1], "dtype": "int32"}, {"name": "PartitionedCall/strided_slice_31/stack_1", "shape": [1], "dtype": "int32"}, {"name": "PartitionedCall/strided_slice_31/stack_2", "shape": [1], "dtype": "int32"}, {"name": "PartitionedCall/strided_slice_32/stack", "shape": [1], "dtype": "int32"}, {"name": "PartitionedCall/strided_slice_32/stack_1", "shape": [1], "dtype": "int32"}, {"name": "PartitionedCall/strided_slice_32/stack_2", "shape": [1], "dtype": "int32"}, {"name": "PartitionedCall/sub_26/y", "shape": [], "dtype": "int32"}, {"name": "PartitionedCall/sub_27/y", "shape": [], "dtype": "int32"}, {"name": "PartitionedCall/strided_slice_33/stack", "shape": [1], "dtype": "int32"}, {"name": "PartitionedCall/strided_slice_33/stack_1", "shape": [1], "dtype": "int32"}, {"name": "PartitionedCall/strided_slice_33/stack_2", "shape": [1], "dtype": "int32"}, {"name": "PartitionedCall/sub_28/y", "shape": [], "dtype": "int32"}, {"name": "PartitionedCall/sub_29/y", "shape": [], "dtype": "int32"}, {"name": "PartitionedCall/strided_slice_30/stack", "shape": [1], "dtype": "int32"}, {"name": "PartitionedCall/strided_slice_30/stack_1", "shape": [1], "dtype": "int32"}, {"name": "PartitionedCall/strided_slice_30/stack_2", "shape": [1], "dtype": "int32"}, {"name": "PartitionedCall/mul_8/x", "shape": [], "dtype": "int32"}, {"name": "PartitionedCall/strided_slice_28/stack", "shape": [1], "dtype": "int32"}, {"name": "PartitionedCall/strided_slice_28/stack_1", "shape": [1], "dtype": "int32"}, {"name": "PartitionedCall/strided_slice_28/stack_2", "shape": [1], "dtype": "int32"}, {"name": "PartitionedCall/sub_24/y", "shape": [], "dtype": "int32"}, {"name": "PartitionedCall/add_16", "shape": [], "dtype": "int32"}, {"name": "PartitionedCall/mul_9/x", "shape": [], "dtype": "int32"}, {"name": "PartitionedCall/strided_slice_29/stack", "shape": [1], "dtype": "int32"}, {"name": "PartitionedCall/strided_slice_29/stack_1", "shape": [1], "dtype": "int32"}, {"name": "PartitionedCall/strided_slice_29/stack_2", "shape": [1], "dtype": "int32"}, {"name": "PartitionedCall/sub_25/y", "shape": [], "dtype": "int32"}, {"name": "PartitionedCall/add_18", "shape": [], "dtype": "int32"}, {"name": "PartitionedCall/conv2d_transpose_4/input_sizes/3", "shape": [], "dtype": "int32"}, {"name": "PartitionedCall/split_4", "shape": [4, 4, 3, 64], "dtype": "float32"}, {"name": "PartitionedCall/Slice_3/begin", "shape": [4], "dtype": "int32"}, {"name": "PartitionedCall/strided_slice_24/stack", "shape": [1], "dtype": "int32"}, {"name": "PartitionedCall/strided_slice_24/stack_1", "shape": [1], "dtype": "int32"}, {"name": "PartitionedCall/strided_slice_24/stack_2", "shape": [1], "dtype": "int32"}, {"name": "PartitionedCall/strided_slice_25/stack", "shape": [1], "dtype": "int32"}, {"name": "PartitionedCall/strided_slice_25/stack_1", "shape": [1], "dtype": "int32"}, {"name": "PartitionedCall/strided_slice_25/stack_2", "shape": [1], "dtype": "int32"}, {"name": "PartitionedCall/sub_20/y", "shape": [], "dtype": "int32"}, {"name": "PartitionedCall/sub_21/y", "shape": [], "dtype": "int32"}, {"name": "PartitionedCall/strided_slice_26/stack", "shape": [1], "dtype": "int32"}, {"name": "PartitionedCall/strided_slice_26/stack_1", "shape": [1], "dtype": "int32"}, {"name": "PartitionedCall/strided_slice_26/stack_2", "shape": [1], "dtype": "int32"}, {"name": "PartitionedCall/sub_22/y", "shape": [], "dtype": "int32"}, {"name": "PartitionedCall/sub_23/y", "shape": [], "dtype": "int32"}, {"name": "PartitionedCall/strided_slice_23/stack", "shape": [1], "dtype": "int32"}, {"name": "PartitionedCall/strided_slice_23/stack_1", "shape": [1], "dtype": "int32"}, {"name": "PartitionedCall/strided_slice_23/stack_2", "shape": [1], "dtype": "int32"}, {"name": "PartitionedCall/mul_6/x", "shape": [], "dtype": "int32"}, {"name": "PartitionedCall/strided_slice_21/stack", "shape": [1], "dtype": "int32"}, {"name": "PartitionedCall/strided_slice_21/stack_1", "shape": [1], "dtype": "int32"}, {"name": "PartitionedCall/strided_slice_21/stack_2", "shape": [1], "dtype": "int32"}, {"name": "PartitionedCall/sub_18/y", "shape": [], "dtype": "int32"}, {"name": "PartitionedCall/add_12", "shape": [], "dtype": "int32"}, {"name": "PartitionedCall/mul_7/x", "shape": [], "dtype": "int32"}, {"name": "PartitionedCall/strided_slice_22/stack", "shape": [1], "dtype": "int32"}, {"name": "PartitionedCall/strided_slice_22/stack_1", "shape": [1], "dtype": "int32"}, {"name": "PartitionedCall/strided_slice_22/stack_2", "shape": [1], "dtype": "int32"}, {"name": "PartitionedCall/sub_19/y", "shape": [], "dtype": "int32"}, {"name": "PartitionedCall/add_14", "shape": [], "dtype": "int32"}, {"name": "PartitionedCall/conv2d_transpose_3/input_sizes/3", "shape": [], "dtype": "int32"}, {"name": "PartitionedCall/split_3", "shape": [4, 4, 64, 128], "dtype": "float32"}, {"name": "PartitionedCall/Slice_2/begin", "shape": [4], "dtype": "int32"}, {"name": "PartitionedCall/strided_slice_17/stack", "shape": [1], "dtype": "int32"}, {"name": "PartitionedCall/strided_slice_17/stack_1", "shape": [1], "dtype": "int32"}, {"name": "PartitionedCall/strided_slice_17/stack_2", "shape": [1], "dtype": "int32"}, {"name": "PartitionedCall/strided_slice_18/stack", "shape": [1], "dtype": "int32"}, {"name": "PartitionedCall/strided_slice_18/stack_1", "shape": [1], "dtype": "int32"}, {"name": "PartitionedCall/strided_slice_18/stack_2", "shape": [1], "dtype": "int32"}, {"name": "PartitionedCall/sub_14/y", "shape": [], "dtype": "int32"}, {"name": "PartitionedCall/sub_15/y", "shape": [], "dtype": "int32"}, {"name": "PartitionedCall/strided_slice_19/stack", "shape": [1], "dtype": "int32"}, {"name": "PartitionedCall/strided_slice_19/stack_1", "shape": [1], "dtype": "int32"}, {"name": "PartitionedCall/strided_slice_19/stack_2", "shape": [1], "dtype": "int32"}, {"name": "PartitionedCall/sub_16/y", "shape": [], "dtype": "int32"}, {"name": "PartitionedCall/sub_17/y", "shape": [], "dtype": "int32"}, {"name": "PartitionedCall/strided_slice_16/stack", "shape": [1], "dtype": "int32"}, {"name": "PartitionedCall/strided_slice_16/stack_1", "shape": [1], "dtype": "int32"}, {"name": "PartitionedCall/strided_slice_16/stack_2", "shape": [1], "dtype": "int32"}, {"name": "PartitionedCall/mul_4/x", "shape": [], "dtype": "int32"}, {"name": "PartitionedCall/strided_slice_14/stack", "shape": [1], "dtype": "int32"}, {"name": "PartitionedCall/strided_slice_14/stack_1", "shape": [1], "dtype": "int32"}, {"name": "PartitionedCall/strided_slice_14/stack_2", "shape": [1], "dtype": "int32"}, {"name": "PartitionedCall/sub_12/y", "shape": [], "dtype": "int32"}, {"name": "PartitionedCall/add_8", "shape": [], "dtype": "int32"}, {"name": "PartitionedCall/mul_5/x", "shape": [], "dtype": "int32"}, {"name": "PartitionedCall/strided_slice_15/stack", "shape": [1], "dtype": "int32"}, {"name": "PartitionedCall/strided_slice_15/stack_1", "shape": [1], "dtype": "int32"}, {"name": "PartitionedCall/strided_slice_15/stack_2", "shape": [1], "dtype": "int32"}, {"name": "PartitionedCall/sub_13/y", "shape": [], "dtype": "int32"}, {"name": "PartitionedCall/add_10", "shape": [], "dtype": "int32"}, {"name": "PartitionedCall/conv2d_transpose_2/input_sizes/3", "shape": [], "dtype": "int32"}, {"name": "PartitionedCall/split_2", "shape": [4, 4, 128, 256], "dtype": "float32"}, {"name": "PartitionedCall/Slice_1/begin", "shape": [4], "dtype": "int32"}, {"name": "PartitionedCall/strided_slice_10/stack", "shape": [1], "dtype": "int32"}, {"name": "PartitionedCall/strided_slice_10/stack_1", "shape": [1], "dtype": "int32"}, {"name": "PartitionedCall/strided_slice_10/stack_2", "shape": [1], "dtype": "int32"}, {"name": "PartitionedCall/strided_slice_11/stack", "shape": [1], "dtype": "int32"}, {"name": "PartitionedCall/strided_slice_11/stack_1", "shape": [1], "dtype": "int32"}, {"name": "PartitionedCall/strided_slice_11/stack_2", "shape": [1], "dtype": "int32"}, {"name": "PartitionedCall/sub_8/y", "shape": [], "dtype": "int32"}, {"name": "PartitionedCall/sub_9/y", "shape": [], "dtype": "int32"}, {"name": "PartitionedCall/strided_slice_12/stack", "shape": [1], "dtype": "int32"}, {"name": "PartitionedCall/strided_slice_12/stack_1", "shape": [1], "dtype": "int32"}, {"name": "PartitionedCall/strided_slice_12/stack_2", "shape": [1], "dtype": "int32"}, {"name": "PartitionedCall/sub_10/y", "shape": [], "dtype": "int32"}, {"name": "PartitionedCall/sub_11/y", "shape": [], "dtype": "int32"}, {"name": "PartitionedCall/strided_slice_9/stack", "shape": [1], "dtype": "int32"}, {"name": "PartitionedCall/strided_slice_9/stack_1", "shape": [1], "dtype": "int32"}, {"name": "PartitionedCall/strided_slice_9/stack_2", "shape": [1], "dtype": "int32"}, {"name": "PartitionedCall/mul_2/x", "shape": [], "dtype": "int32"}, {"name": "PartitionedCall/strided_slice_7/stack", "shape": [1], "dtype": "int32"}, {"name": "PartitionedCall/strided_slice_7/stack_1", "shape": [1], "dtype": "int32"}, {"name": "PartitionedCall/strided_slice_7/stack_2", "shape": [1], "dtype": "int32"}, {"name": "PartitionedCall/sub_6/y", "shape": [], "dtype": "int32"}, {"name": "PartitionedCall/add_4", "shape": [], "dtype": "int32"}, {"name": "PartitionedCall/mul_3/x", "shape": [], "dtype": "int32"}, {"name": "PartitionedCall/strided_slice_8/stack", "shape": [1], "dtype": "int32"}, {"name": "PartitionedCall/strided_slice_8/stack_1", "shape": [1], "dtype": "int32"}, {"name": "PartitionedCall/strided_slice_8/stack_2", "shape": [1], "dtype": "int32"}, {"name": "PartitionedCall/sub_7/y", "shape": [], "dtype": "int32"}, {"name": "PartitionedCall/add_6", "shape": [], "dtype": "int32"}, {"name": "PartitionedCall/conv2d_transpose_1/input_sizes/3", "shape": [], "dtype": "int32"}, {"name": "PartitionedCall/split_1", "shape": [4, 4, 256, 512], "dtype": "float32"}, {"name": "PartitionedCall/Slice/begin", "shape": [4], "dtype": "int32"}, {"name": "PartitionedCall/strided_slice_3/stack", "shape": [1], "dtype": "int32"}, {"name": "PartitionedCall/strided_slice_3/stack_1", "shape": [1], "dtype": "int32"}, {"name": "PartitionedCall/strided_slice_3/stack_2", "shape": [1], "dtype": "int32"}, {"name": "PartitionedCall/strided_slice_4/stack", "shape": [1], "dtype": "int32"}, {"name": "PartitionedCall/strided_slice_4/stack_1", "shape": [1], "dtype": "int32"}, {"name": "PartitionedCall/strided_slice_4/stack_2", "shape": [1], "dtype": "int32"}, {"name": "PartitionedCall/strided_slice_5/stack", "shape": [1], "dtype": "int32"}, {"name": "PartitionedCall/strided_slice_5/stack_1", "shape": [1], "dtype": "int32"}, {"name": "PartitionedCall/strided_slice_5/stack_2", "shape": [1], "dtype": "int32"}, {"name": "PartitionedCall/strided_slice_2/stack", "shape": [1], "dtype": "int32"}, {"name": "PartitionedCall/strided_slice_2/stack_1", "shape": [1], "dtype": "int32"}, {"name": "PartitionedCall/strided_slice_2/stack_2", "shape": [1], "dtype": "int32"}, {"name": "PartitionedCall/strided_slice/stack", "shape": [1], "dtype": "int32"}, {"name": "PartitionedCall/strided_slice/stack_1", "shape": [1], "dtype": "int32"}, {"name": "PartitionedCall/strided_slice/stack_2", "shape": [1], "dtype": "int32"}, {"name": "PartitionedCall/sub/y", "shape": [], "dtype": "int32"}, {"name": "PartitionedCall/add", "shape": [], "dtype": "int32"}, {"name": "PartitionedCall/strided_slice_1/stack", "shape": [1], "dtype": "int32"}, {"name": "PartitionedCall/strided_slice_1/stack_1", "shape": [1], "dtype": "int32"}, {"name": "PartitionedCall/strided_slice_1/stack_2", "shape": [1], "dtype": "int32"}, {"name": "PartitionedCall/sub_1/y", "shape": [], "dtype": "int32"}, {"name": "PartitionedCall/add_2", "shape": [], "dtype": "int32"}, {"name": "PartitionedCall/conv2d_transpose/input_sizes/3", "shape": [], "dtype": "int32"}, {"name": "PartitionedCall/split", "shape": [4, 4, 512, 128], "dtype": "float32"}, {"name": "PartitionedCall/transpose_1/perm", "shape": [4], "dtype": "int32"}, {"name": "PartitionedCall/strided_slice_6/stack", "shape": [1], "dtype": "int32"}, {"name": "PartitionedCall/strided_slice_6/stack_1", "shape": [1], "dtype": "int32"}, {"name": "PartitionedCall/strided_slice_6/stack_2", "shape": [1], "dtype": "int32"}, {"name": "PartitionedCall/transpose_2/perm", "shape": [4], "dtype": "int32"}, {"name": "PartitionedCall/onnx_tf_prefix_/main/main.1/BatchNormalization/mul", "shape": [1, 512, 1, 1], "dtype": "float32"}, {"name": "PartitionedCall/onnx_tf_prefix_/main/main.1/BatchNormalization/sub", "shape": [1, 512, 1, 1], "dtype": "float32"}, {"name": "PartitionedCall/transpose_4/perm", "shape": [4], "dtype": "int32"}, {"name": "PartitionedCall/strided_slice_13/stack", "shape": [1], "dtype": "int32"}, {"name": "PartitionedCall/strided_slice_13/stack_1", "shape": [1], "dtype": "int32"}, {"name": "PartitionedCall/strided_slice_13/stack_2", "shape": [1], "dtype": "int32"}, {"name": "PartitionedCall/transpose_5/perm", "shape": [4], "dtype": "int32"}, {"name": "PartitionedCall/onnx_tf_prefix_/main/main.4/BatchNormalization/mul", "shape": [1, 256, 1, 1], "dtype": "float32"}, {"name": "PartitionedCall/onnx_tf_prefix_/main/main.4/BatchNormalization/sub", "shape": [1, 256, 1, 1], "dtype": "float32"}, {"name": "PartitionedCall/transpose_7/perm", "shape": [4], "dtype": "int32"}, {"name": "PartitionedCall/strided_slice_20/stack", "shape": [1], "dtype": "int32"}, {"name": "PartitionedCall/strided_slice_20/stack_1", "shape": [1], "dtype": "int32"}, {"name": "PartitionedCall/strided_slice_20/stack_2", "shape": [1], "dtype": "int32"}, {"name": "PartitionedCall/transpose_8/perm", "shape": [4], "dtype": "int32"}, {"name": "PartitionedCall/onnx_tf_prefix_/main/main.7/BatchNormalization/mul", "shape": [1, 128, 1, 1], "dtype": "float32"}, {"name": "PartitionedCall/onnx_tf_prefix_/main/main.7/BatchNormalization/sub", "shape": [1, 128, 1, 1], "dtype": "float32"}, {"name": "PartitionedCall/transpose_10/perm", "shape": [4], "dtype": "int32"}, {"name": "PartitionedCall/strided_slice_27/stack", "shape": [1], "dtype": "int32"}, {"name": "PartitionedCall/strided_slice_27/stack_1", "shape": [1], "dtype": "int32"}, {"name": "PartitionedCall/strided_slice_27/stack_2", "shape": [1], "dtype": "int32"}, {"name": "PartitionedCall/transpose_11/perm", "shape": [4], "dtype": "int32"}, {"name": "PartitionedCall/onnx_tf_prefix_/main/main.10/BatchNormalization/mul", "shape": [1, 64, 1, 1], "dtype": "float32"}, {"name": "PartitionedCall/onnx_tf_prefix_/main/main.10/BatchNormalization/sub", "shape": [1, 64, 1, 1], "dtype": "float32"}, {"name": "PartitionedCall/transpose_13/perm", "shape": [4], "dtype": "int32"}, {"name": "PartitionedCall/strided_slice_34/stack", "shape": [1], "dtype": "int32"}, {"name": "PartitionedCall/strided_slice_34/stack_1", "shape": [1], "dtype": "int32"}, {"name": "PartitionedCall/strided_slice_34/stack_2", "shape": [1], "dtype": "int32"}, {"name": "PartitionedCall/transpose_14/perm", "shape": [4], "dtype": "int32"}]}]}